models/model.pt (torch, 379835 bytes, 14 tensors)

lstm.weight_ih_l0 f4 [256, 40]
000000 3c 37 9f bc 16 19 0a bc d1 3f e0 3c 02 46 80 bd
       -0.019435517 -0.0084288325 0.02737418 -0.06263353
000010 ca f8 91 bd e6 eb 88 bd 8b d1 34 bc a3 eb d1 bd
       -0.07127531 -0.06685619 -0.011036287 -0.10250022
000020 90 be 1b bd f7 0b cd 3c f6 3c 80 bd 0b db 34 bb
       -0.03802353 0.02503012 -0.062616274 -0.002759638
000030 80 13 76 3d 17 f9 ec 3c 3c 65 41 bd 1d 34 91 3d
       0.06007719 0.028927369 -0.047215685 0.07090018
000040 8a 45 84 3d 40 79 9b bd 85 f5 9d 3c 45 1d be bd
       0.06458576 -0.07591486 0.019282112 -0.092829265
000050 78 3c 07 3c 9a dc 46 bd 32 fd 63 bc c6 9f b7 bd
       0.008254163 -0.048550226 -0.013915347 -0.08966021
000060 4c 8c 95 3c 10 1b d5 bb 2f 0b a1 3d 5d 32 45 3d
       0.018255375 -0.0065034702 0.07863461 0.048143733
000070 ff 93 b5 3c 73 d6 49 3c bd 72 07 bd c1 ef 70 3d
       0.022165297 0.012319195 -0.033068407 0.058822397
000080 c6 f5 79 3d f5 b3 7b 3c 94 0c c5 3d 74 82 24 3d
       0.061025403 0.015362729 0.0962154 0.040163472
000090 a8 19 eb 3a 5f ab 2d 3a 75 dc 08 bd b4 f3 d4 3c
       0.0017936723 0.00066249626 -0.03341337 0.025995113
0000a0 bb c7 37 3e 30 13 3b 3e fd d6 5d 3e 62 2d 44 3e
       0.17947285 0.18269038 0.21664043 0.19157937
0000b0 0f 35 64 3e 6d e2 41 3e 6e 94 37 3e 24 96 20 3e
       0.22285865 0.18934031 0.17927715 0.15682274
0000c0 11 66 3e 3e aa 48 39 3e 33 2b 44 3e 07 7f 71 3c
       0.18593623 0.18094125 0.19157104 0.014739758
0000d0 39 37 b7 3d 6e 4f 8e 3d 8b 89 cb 3d a3 37 ef 3d
       0.0894608 0.06948744 0.099383436 0.11680534
0000e0 cc 92 8c 3d 5a d2 98 3d 21 e2 b9 3d ca 44 cb 3d
       0.06863937 0.074619964 0.09076334 0.0992523
0000f0 1f 08 94 3d 57 b9 a6 3d ed ee c1 3d 1e a8 b3 3d
       0.072281115 0.081408195 0.094693996 0.087723
000100 e0 99 12 3e d4 e4 2f 3e 4b 30 21 3e 63 f1 54 3e
       0.14316511 0.17177135 0.15741079 0.20795207
000110 29 78 6a 3e 94 4b 25 3c c2 81 10 3e 03 5f d9 3d
       0.228974 0.01008882 0.14111999 0.10613825
000120 09 a1 b7 3d 4d 31 86 3e 4d e0 9e 3e 9c 68 c6 3d
       0.08966262 0.2620949 0.31030503 0.096879214
000130 1e e5 2c 3e 3f 6c 30 3e af d1 64 3e c1 8c 52 3e
       0.16884276 0.17228793 0.22345613 0.20561506
000140 74 b9 99 3c 52 50 12 3d 72 17 f5 3c 4e 45 2e 3d
       0.018765189 0.03572113 0.029918406 0.042546563
000150 ed dd 80 3d 96 48 97 bd af cb dd bd 8f c2 2b bd
       0.06292329 -0.073868915 -0.10829865 -0.041933592
000160 f9 68 41 bd a0 fa 26 bd bc b3 97 bd dc 89 ff bb
       -0.04721925 -0.04076636 -0.074073285 -0.0077984165
000170 cb 96 e9 bc 4f 4f 92 bb 57 f3 f4 3c 99 b0 23 3c
       -0.028514287 -0.0044650207 0.02990119 0.009990835
000180 1c 6d 5e 3d 30 41 4b bd 4c 60 27 bd 1f e3 36 bd
       0.054303274 -0.049622715 -0.04086332 -0.044650193
000190 99 2f 9f bd d2 4c 0f bd 58 8e e4 3c 9e a6 8b bd
       -0.077727504 -0.03498537 0.027899906 -0.06818889
0001a0 98 3c e9 bc 3c 06 97 3d 44 13 01 3d 5a 93 8f 3d
       -0.028471276 0.07374236 0.031512514 0.07010527
0001b0 2d 74 94 3c 11 5a a0 3b 86 3c 81 3d 66 29 02 bd
       0.018121803 0.0048935493 0.06310372 -0.031777762
0001c0 54 65 96 bd cb 13 cf 3c c8 d2 8c 3a f1 02 28 bd
       -0.073435456 0.025277993 0.001074397 -0.04101843
0001d0 c3 11 a5 bd 74 4d 0f bd f8 c8 8c 3c 1f b9 8f bc
       -0.080600284 -0.034985974 0.017185673 -0.017544327
0001e0 a0 dd 82 bd 1e 29 5c bd 65 1b 33 3c f8 f5 83 3c
       -0.06389928 -0.05375015 0.010931824 0.016108498
0001f0 08 bd 09 bd 80 c4 64 bd 3f 86 1c be 2c 6c dc bd
       -0.03362754 -0.05585146 -0.15285586 -0.1076282
000200 cb 8a 32 bd 75 c6 f1 bc e1 84 d6 bc d8 9d 0f 3b
       -0.043589395 -0.029513577 -0.026186408 0.002191415
000210 fc 1d a1 bd 2f 30 56 bd 3f ff f6 bb d5 2b 22 3d
       -0.07867047 -0.052292045 -0.007537752 0.039592583
000220 4b c8 d5 3c 37 e6 bb bc f5 6b c5 bd 42 9f c3 bd
       0.026096484 -0.022936923 -0.09639732 -0.095518604
000230 15 cf b5 bb bc 60 9d bd f8 95 96 bd 47 c5 a6 bd
       -0.0055483677 -0.07684466 -0.07352823 -0.081430964
000240 5b 75 75 bd 64 f6 c3 3d 76 11 c7 3c 7c a5 f6 3d
       -0.059926372 0.0956848 0.024300318 0.120432824
000250 7d 38 4c 3d 60 f2 a8 3b 54 a8 67 3c 15 54 01 bc
       0.04985856 0.0051558465 0.014139254 -0.007893582
000260 fb d5 0a 3d 33 c4 f2 bc a5 12 e2 3d 47 74 bb bd
       0.033895474 -0.02963457 0.110387124 -0.091530375
000270 81 fe 9b bc 4e d6 c9 3d e5 7a 15 bd 62 47 3e 3d
       -0.019042255 0.098553285 -0.036494154 0.046454795
000280 d6 4e e3 3b f1 47 2b 3d ea b4 5b 3d 3a 42 d3 3d
       0.006936888 0.041816656 0.05363933 0.10315366
000290 ac 02 84 bd ee 6b 8a bc a4 d8 b0 3c d9 36 c3 3d
       -0.06445822 -0.016897168 0.021587677 0.09531946
0002a0 82 63 1f ba 7c d4 08 bd 0b 08 3f 3c 19 52 e3 3a
       -0.00060801965 -0.033405766 0.011659632 0.0017343193
0002b0 d0 25 7e bd c5 f1 90 3c 86 aa c3 3d 32 9d 5b 3c
       -0.06204778 0.01769341 0.09554009 0.0134041775
0002c0 b0 43 92 3d d9 5c a9 bc f3 6d a0 3d 9b 54 cb 39
       0.071418166 -0.020674156 0.07833471 0.00038782213
0002d0 e9 74 a4 bd d6 31 3a bd ab 01 28 bd ec 5e 13 bc
       -0.08030111 -0.045457684 -0.041017216 -0.008994799
0002e0 78 6e 8c bd fe 41 12 bd b7 67 3c 3d ce 55 41 3d
       -0.06857008 -0.035707466 0.045997348 0.04720097
0002f0 39 59 c4 3d c1 cb 79 bb e6 1d bb 3c b4 8c 5b 3d
       0.0958733 -0.0038115832 0.022841405 0.05360098
000300 06 65 12 bd 49 1d 31 bd 2a 24 86 bd ce c9 9e 3d
       -0.035740875 -0.04324082 -0.065498665 0.07753335
000310 14 40 9f bd 6d c3 92 bd 6a 9c 6d bd b2 91 c7 3d
       -0.07775894 -0.07166181 -0.058010496 0.09744586
000320 56 eb 5b bb 30 58 99 3c fc 1e b1 bd fa 01 b3 3d
       -0.003355702 0.018718809 -0.08648488 0.087406114
000330 1e 9c 2a bd 24 05 56 3b 6b f3 2f 3d 4f c8 6d 3d
       -0.04165279 0.0032656873 0.04295675 0.058052357
000340 9b 7e 44 bd cb 4f aa 3a fa ce d6 3d 02 5e 6b 3b
       -0.047972303 0.0012993751 0.104886964 0.0035914187
000350 3d 4d 88 3d 4c 1d 39 bd a5 bd 8f bd ee 6e af 3d
       0.06655357 -0.045193955 -0.07018594 0.0856608
000360 67 6a d9 3d 3d dd 01 bc d5 53 a0 3d 84 78 82 bd
       0.10615998 -0.0079262825 0.0782849 -0.06370643
000370 4a a4 8d 3d 75 83 f2 bc 21 56 17 3c 1d ab 61 bd
       0.06916101 -0.0296037 0.009236843 -0.055094827
000380 f8 4d a6 bd f3 58 40 3c 2e a1 68 3c 12 38 ab bc
       -0.0812034 0.011739957 0.0141985845 -0.02090076
000390 0c 62 1c bd 70 52 ff 3a 32 78 57 bd 8e 52 a7 bd
       -0.038179442 0.0019479524 -0.05260486 -0.08170043
0003a0 37 2e 55 ba 92 b6 a4 3d 21 6d af 3c 75 86 b4 3d
       -0.0008132192 0.08042635 0.021414341 0.08814708
0003b0 ea 67 9e bd 77 25 98 bd 77 a2 ae 3d 07 59 f2 3d
       -0.07734664 -0.07429021 0.085270815 0.11833387
0003c0 20 80 ec bc 8a d4 4b 3b 48 ed 5e 3d 63 fe 15 b9
       -0.028869689 0.0031102025 0.054425508 -0.00014304514
0003d0 00 4d 61 bc d5 11 c1 bc 45 ab f9 bb 72 41 24 bd
       -0.013751268 -0.023568073 -0.007619294 -0.040101476
0003e0 ec 9b 1f 3c a6 53 26 3d 75 52 1c 3d 04 0e 04 bc
       0.0097417645 0.040607117 0.038164575 -0.008059982
0003f0 83 59 dc bc db 62 1f bd 1c db 88 3c 57 55 fb bc
       -0.026898151 -0.038912635 0.016706042 -0.030680342

lstm.weight_hh_l0 f4 [256, 64]
000000 94 57 49 83 84 4f 9d 02 2a dc 05 03 54 41 45 83
       -5.9169126e-37 2.3114716e-37 3.9337923e-37 -5.796809e-37
000010 1c 1a b2 81 4f eb 23 83 dc 89 47 03 38 28 ea 02
       -6.542434e-38 -4.8171516e-37 5.86391e-37 3.4406294e-37
000020 f3 69 08 82 a4 13 5c 83 44 65 36 82 1a 94 54 02
       -1.0022108e-37 -6.4674736e-37 -1.340031e-37 1.5617803e-37
000030 94 eb 22 83 0f 97 39 83 e8 7d 28 01 e5 4d f0 02
       -4.787795e-37 -5.454002e-37 3.094706e-38 3.530954e-37
000040 14 63 70 01 61 e2 3f 03 29 48 3b 82 26 21 ed 02
       4.4152123e-38 5.6389725e-37 -1.3759299e-37 3.4843046e-37
000050 59 d8 80 81 5a 27 1e 02 0f 34 d2 81 19 65 d0 02
       -4.733022e-38 1.16193e-37 -7.7216517e-38 3.062088e-37
000060 0c 83 c1 02 10 b0 01 03 00 5b 5a 01 6e f3 a5 82
       2.8434018e-37 3.8111803e-37 4.0105566e-38 -2.4384293e-37
000070 19 a0 45 03 ff a1 cd 02 c0 68 49 81 dd 15 c4 02
       5.807688e-37 3.0215024e-37 -3.6993024e-38 2.881216e-37
000080 33 1b 02 83 68 a2 d1 82 46 4f b4 82 fe 1d d9 82
       -3.823479e-37 -3.0803007e-37 -2.6494124e-37 -3.19025e-37
000090 67 e2 3a 02 5a 55 d8 82 01 9b 05 03 70 80 31 83
       1.3730096e-37 -3.1787337e-37 3.9263123e-37 -5.2163064e-37
0000a0 28 ca b6 82 0a 91 28 82 69 03 2d 02 c5 c7 d2 82
       -2.6858528e-37 -1.2384315e-37 1.2711011e-37 -3.0971389e-37
0000b0 c0 d6 88 01 bb 07 26 83 8c 1b 97 00 9e 5b 2e 03
       5.026666e-38 -4.879189e-37 1.3877042e-38 5.1239176e-37
0000c0 c2 5c 3a 03 ee dc 5d 83 dd 0e 6b 03 2f 41 03 03
       5.476697e-37 -6.5199678e-37 6.9077355e-37 3.8572267e-37
0000d0 2e dd 7b 81 42 b3 10 03 32 bb e7 81 7a 6f 49 03
       -4.6260108e-38 4.2523575e-37 -8.512461e-38 5.919656e-37
0000e0 dd 1e ff 81 83 cf 87 82 f7 02 8e 01 27 d0 4a 03
       -9.371649e-38 -1.9955573e-37 5.2166816e-38 5.960141e-37
0000f0 32 40 9f 02 de 9f d7 02 2e 81 9a 02 ea 17 2e 03
       2.3399797e-37 3.168317e-37 2.2702412e-37 5.1161456e-37
000100 da 54 1a 03 8d 4b 0a 83 2e 55 03 83 2f 93 03 03
       4.5353937e-37 -4.0641283e-37 -3.859522e-37 3.86664e-37
000110 10 97 8c 00 3c 82 11 83 d4 39 5a 82 ef 84 f7 82
       1.291116e-38 -4.276117e-37 -1.6032706e-37 -3.6369688e-37
000120 b2 f7 dc 02 d3 24 8b 02 2a e1 9e 81 24 c0 77 80
       3.2468265e-37 2.044535e-37 -5.836313e-38 -1.0997351e-38
000130 ba 22 03 02 2b 4a d8 82 b2 ad 28 03 19 b8 82 02
       9.634326e-38 -3.1780918e-37 4.9570155e-37 1.920745e-37
000140 da dd 88 01 34 38 9a 81 24 14 02 81 4a 14 a9 82
       5.027685e-38 -5.6651313e-38 -2.389168e-38 -2.4843964e-37
000150 96 9b 4b 03 5d 95 a7 02 e0 88 28 02 88 a9 8a 01
       5.983494e-37 2.4624175e-37 1.2381972e-37 5.093646e-38
000160 04 5f b4 02 a0 7e 02 01 9c ef f6 01 04 49 e6 02
       2.650316e-37 2.3968078e-38 9.070995e-38 3.3837371e-37
000170 84 19 0d 80 dc 95 01 83 fc 20 12 03 51 88 f8 02
       -1.203015e-39 -3.8081723e-37 4.294341e-37 3.6518567e-37
000180 f3 0d 21 03 85 a9 51 83 22 51 a1 82 c2 19 09 03
       4.732966e-37 -6.161418e-37 -2.3703392e-37 4.029025e-37
000190 9a c8 dd 02 ba 9f 38 82 7a cb fd 82 19 79 28 83
       3.258817e-37 -1.3564024e-37 -3.7291799e-37 -4.9509776e-37
0001a0 3c 02 93 02 af c5 22 03 ab e6 aa 82 3b 9e 4b 03
       2.1600991e-37 4.783445e-37 -2.5111652e-37 5.983798e-37
0001b0 a9 1a 88 82 90 7e 04 83 02 e2 1e 83 b0 aa f1 02
       -1.9998706e-37 -3.89366e-37 -4.669147e-37 3.5509737e-37
0001c0 2a 94 1a 83 30 9d 14 03 9c 83 d3 01 1d 15 08 83
       -4.5426617e-37 4.3673733e-37 7.769801e-38 -3.9991045e-37
0001d0 d0 55 80 82 d9 e4 11 02 28 56 f9 02 f2 a5 67 83
       -1.8857164e-37 1.0718594e-37 3.6636713e-37 -6.8075295e-37
0001e0 72 6f 19 03 c3 57 39 03 6a a8 89 01 e4 b3 1e 82
       4.509059e-37 5.446736e-37 5.0567514e-38 -1.1659633e-37
0001f0 0e f6 9f 82 23 93 19 83 a4 1a 4b 02 4d 4d 01 82
       -2.3504179e-37 -4.5131564e-37 1.492173e-37 -9.499607e-38
000200 80 c6 22 03 09 71 5a 83 30 d0 49 83 94 59 44 03
       4.783539e-37 -6.41942e-37 -5.930758e-37 5.7702054e-37
000210 6a 18 b4 02 07 b0 bf 01 7e 2b a3 81 e8 1f 72 81
       2.6462636e-37 7.0414906e-38 -5.993915e-38 -4.4471272e-38
000220 5a cb f1 82 14 ce 50 03 70 26 3f 83 18 88 4d 81
       -3.5528485e-37 6.1362272e-37 -5.617398e-37 -3.7750196e-38
000230 7c 1c 04 83 5b 3d 3a 03 89 68 30 83 4c 48 11 81
       -3.882401e-37 5.473092e-37 -5.184175e-37 -2.6684164e-38
000240 bb 73 31 83 cd 97 ad 82 22 ce f4 02 a4 04 3c 83
       -5.2148477e-37 -2.5507195e-37 3.5970892e-37 -5.525356e-37
000250 91 50 d4 02 2a a3 ef 02 e5 c0 69 03 d3 18 4a 03
       3.1196843e-37 3.5211545e-37 6.869398e-37 5.939096e-37
000260 9a 06 21 83 5c fc 0b 83 d7 31 f2 02 66 95 5c 03
       -4.7321226e-37 -4.1138123e-37 3.558731e-37 6.482369e-37
000270 90 87 c9 01 f2 87 04 03 9e f2 c0 02 24 c4 57 81
       7.403026e-38 3.894737e-37 2.835112e-37 -3.9629987e-38
000280 51 b6 0f 83 6f 55 31 02 b5 09 0f 02 4c 57 fc 02
       -4.223321e-37 1.3028424e-37 1.0508767e-37 3.7078178e-37
000290 07 0a d3 02 e1 de 9a 02 fb 43 82 81 10 9a cf 82
       3.100942e-37 2.2756192e-37 -4.7852005e-38 -3.0504344e-37
0002a0 64 5b f0 81 fe f9 ef 81 e7 bb 56 83 69 87 60 03
       -8.8293215e-38 -8.8153456e-38 -6.310465e-37 6.5983127e-37
0002b0 8e b4 f6 81 38 7c b4 82 b6 eb 5b 82 1c 3e 12 03
       -9.062521e-38 -2.651992e-37 -1.6157225e-37 4.297684e-37
0002c0 d9 cd 10 83 5c 3d d7 81 e8 fe ae 81 c0 e5 81 81
       -4.25541e-37 -7.9066573e-38 -6.428328e-38 -4.771679e-38
0002d0 ac 63 91 82 10 97 dc 82 8c bb ff 82 4c a5 4f 01
       -2.1363044e-37 -3.24128e-37 -3.757653e-37 3.813849e-38
0002e0 48 7d d7 02 78 31 2d 03 64 65 6e 80 19 b2 6d 03
       3.1663319e-37 5.089692e-37 -1.0138277e-38 6.9852486e-37
0002f0 9a bd 39 03 6b 96 38 02 4c b8 77 01 34 a5 46 01
       5.4584266e-37 1.3561353e-37 4.5498962e-38 3.6485384e-38
000300 86 d4 3e 03 56 9b 69 83 38 83 2c 82 61 bf 47 83
       5.6079947e-37 -6.8650863e-37 -1.2674222e-37 -5.8700536e-37
000310 4e 40 82 82 78 d7 63 82 6a 6d 81 81 6a 44 1b 83
       -1.9138692e-37 -1.6739163e-37 -4.754412e-38 -4.562894e-37
000320 dd 8e 06 83 22 ab 6d 02 3a ce f3 01 94 83 ae 02
       -3.954306e-37 1.7461123e-37 8.9560023e-38 2.5642524e-37
000330 5c 94 30 03 00 70 f8 02 75 84 43 03 b0 e4 f8 82
       5.189206e-37 3.650461e-37 5.7457403e-37 -3.6571585e-37
000340 f2 c2 1f 02 60 26 90 82 10 71 cf 01 a7 b3 f0 02
       1.1737422e-37 -2.1180924e-37 7.620203e-38 3.5367946e-37
000350 8f 57 46 03 34 ea 97 82 c8 e7 d2 02 11 38 6f 82
       5.8287483e-37 -2.2321882e-37 3.0989763e-37 -1.7575037e-37
000360 6f 15 27 02 d7 bb 27 83 65 e1 21 03 ac ab a7 00
       1.2275373e-37 -4.929252e-37 4.757239e-37 1.5398112e-38
000370 dd 9b 06 83 85 97 00 03 3c 5a 6e 83 2a b7 42 03
       -3.9557983e-37 3.7789755e-37 -7.00455e-37 5.722174e-37
000380 5e 4a cd 82 9a 4d 87 82 46 0c 06 83 0a 21 19 83
       -3.0164727e-37 -1.9881008e-37 -3.939315e-37 -4.5000586e-37
000390 e6 b1 69 03 06 a9 aa 02 c3 7b e8 82 e8 f5 a0 02
       6.8676763e-37 2.507627e-37 -3.4160372e-37 2.365103e-37
0003a0 f2 0d b3 02 a8 38 4b 80 f5 98 83 82 58 48 27 01
       2.630969e-37 -6.907987e-39 -1.9336513e-37 3.072496e-38
0003b0 bc 33 43 83 14 42 2c 83 5f 16 a9 81 3b 93 49 03
       -5.7364738e-37 -5.062211e-37 -6.2112896e-38 5.9237603e-37
0003c0 ec ca be 00 a8 09 56 03 28 46 48 02 4e 9b 3e 03
       1.7521539e-38 6.2900033e-37 1.4713813e-37 5.6014263e-37
0003d0 0c dd d3 02 be 0f 78 01 12 de d5 02 fd 32 2e 83
       3.1130538e-37 4.55617e-38 3.1425e-37 -5.1192536e-37
0003e0 08 c3 f6 02 5b 94 d8 02 60 0a 13 02 d2 fb 98 02
       3.6258394e-37 3.18235e-37 1.0802832e-37 2.247893e-37
0003f0 e6 de ff 02 fb 08 01 83 08 f5 b8 02 58 03 82 81
       3.759682e-37 -3.792e-37 2.717701e-37 -4.7759256e-38

lstm.bias_ih_l0 f4 [256]
000000 16 05 75 bd d9 5e 72 3e b3 3f b7 3d b4 1b 9e 3d
       -0.059819303 0.23668994 0.089476965 0.07720128
000010 27 03 30 3d 1d 18 0a 3d 1c 5d 6d 3d 94 f2 3c bb
       0.042971756 0.033714402 0.057950124 -0.0028831111
000020 90 38 6b bd cf 18 10 bd 9e b7 c9 3d 86 4f 68 bd
       -0.05742699 -0.03517991 0.09849475 -0.056716464
000030 63 90 91 bc b8 f1 f0 3c 63 c8 62 3d 50 60 c6 bc
       -0.017769044 0.029412135 0.055366885 -0.024215847
000040 6b 08 b1 3c 2a 67 03 3e 31 b7 e9 3d a6 01 34 bd
       0.02161046 0.12832323 0.11411894 -0.043946885
000050 34 3b f3 3d 14 c5 0d 3e 02 74 cb 3d 48 46 75 3d
       0.118765265 0.1384471 0.09934236 0.05988148
000060 54 73 6b bd af 17 ce 3b 80 ea b7 3d d0 b9 1e bd
       -0.057483032 0.0062894444 0.08980274 -0.038751423
000070 f3 64 c1 3b 24 97 ee bb 4e 36 ef 3d cd c1 6e bb
       0.0059019267 -0.007281201 0.1168028 -0.0036431432
000080 c0 dc 77 3c 6a 16 19 3d c8 10 92 3d 91 d0 18 bd
       0.0151283145 0.03737489 0.07132107 -0.03730828
000090 57 8a d3 bc b7 a3 fc 3d 30 70 1c 3e ae 61 c6 bc
       -0.025822802 0.12335914 0.15277171 -0.0242165
0000a0 1a e6 79 3d 5e 30 6b 3c ae 0a 55 3d 82 17 ec 3d
       0.061010458 0.014354793 0.052012138 0.11527921
0000b0 8c 70 4c 3d d6 a9 1f 3c 4d 79 fd 3d cf 41 4b 3d
       0.04991202 0.009745082 0.12376652 0.049623307
0000c0 12 9a f6 3c 99 87 a5 3d 73 93 79 3b b4 87 fa 3d
       0.030102763 0.08082504 0.0038082271 0.122329146
0000d0 ce 7d 2b 3d f7 5a 45 3d 5c b5 ac 3d c7 00 ff 3c
       0.041868024 0.048182454 0.08433029 0.0311283
0000e0 2f 24 96 bc 06 d1 de 3d 73 75 03 3e dd 3f 17 3d
       -0.0183278 0.10879712 0.12837772 0.03692614
0000f0 eb 1d b2 bc f0 b9 7b bd b6 48 ee 3c 82 ca 59 3d
       -0.021742782 -0.06145662 0.029087406 0.053171642
000100 d8 fa ea 02 74 15 38 82 ac 20 1c 03 a9 04 c2 02
       3.4527187e-37 -1.3524342e-37 4.5881785e-37 2.8508413e-37
000110 bc 3a 48 02 d3 6d 57 83 78 b6 62 83 9f e2 9d 81
       1.4710535e-37 -6.3308893e-37 -6.6624895e-37 -5.7997877e-38
000120 61 a6 ba 02 b4 90 84 02 0c 37 42 81 2c 4b 67 03
       2.742574e-37 1.9478712e-37 -3.5671667e-38 6.797109e-37
000130 5b 72 84 82 c8 82 42 83 28 92 1d 03 32 e8 11 82
       -1.9461294e-37 -5.7161606e-37 4.6305932e-37 -1.0719554e-37
000140 a0 10 03 83 2d 6a a6 81 18 1b 70 83 77 be 07 03
       -3.8516525e-37 -6.1131124e-38 -7.0560763e-37 3.9891577e-37
000150 02 0e e1 82 e8 1d 59 80 c2 69 89 02 28 b1 bd 02
       -3.3068819e-37 -8.184087e-39 2.0191043e-37 2.7872737e-37
000160 88 a2 04 82 58 cb 69 83 3c 62 64 83 14 0e d6 82
       -9.744473e-38 -6.8705973e-37 -6.7115946e-37 -3.1452554e-37
000170 c6 03 3b 82 3c 86 17 83 86 4a 58 83 0a ef 1b 81
       -1.3739673e-37 -4.4529005e-37 -6.3562244e-37 -2.8640506e-38
000180 7e 83 1f 03 d4 c3 41 83 12 b0 8e 82 82 f1 18 82
       4.6876846e-37 -5.69424e-37 -2.0966084e-37 -1.1236506e-37
000190 0c c2 c0 02 ee b5 58 83 fb 4a 45 03 2e cc 13 02
       2.8323242e-37 -6.368554e-37 5.797917e-37 1.0858451e-37
0001a0 eb 84 68 03 d5 54 0f 83 20 fe 01 03 14 a5 25 02
       6.8331255e-37 -4.2121305e-37 3.8201414e-37 1.2169661e-37
0001b0 5f b5 4e 83 f1 a3 84 02 08 19 0f 80 10 ac 43 03
       -6.0746163e-37 1.9489755e-37 -1.386512e-39 5.7502868e-37
0001c0 b5 ed 46 83 1c e0 20 83 59 b5 50 03 e9 59 51 03
       -5.8459845e-37 -4.727704e-37 6.1333883e-37 6.152279e-37
0001d0 a3 86 40 82 46 45 c5 02 f8 27 42 02 72 18 e1 02
       -1.4144571e-37 2.898631e-37 1.426434e-37 3.307481e-37
0001e0 68 94 b4 82 91 59 1d 03 f6 c6 4c 82 78 b4 03 83
       -2.6533804e-37 4.624097e-37 -1.5044652e-37 -3.870461e-37
0001f0 64 54 87 01 50 3d 2e 83 b6 89 d4 82 d8 89 66 80
       4.971226e-38 -5.1204388e-37 -3.1229642e-37 -9.41667e-39
000200 11 f3 e1 3d 26 3b bb 3b d2 45 97 3d 9a 1e f8 bd
       0.11032689 0.005713838 0.07386364 -0.12115212
000210 a1 ab e7 bd a7 fb c9 3d 80 ab e0 3c cd 08 07 be
       -0.113120325 0.09862452 0.027425528 -0.13186951
000220 69 bd 8e bd c9 56 98 bd 12 33 35 be ff 3f a1 3c
       -0.06969721 -0.07438428 -0.17695263 0.019683836
000230 34 cd 27 be e5 cb 6b 3d 50 e9 f7 bd 32 db 33 be
       -0.16386873 0.057567496 -0.12105048 -0.17564085
000240 39 08 a4 3d 2f b0 dc bd cc d5 c1 bd 09 ec 19 bb
       0.08009381 -0.10775792 -0.09464607 -0.0023486635
000250 d6 27 0d bd 52 fd 4f 3d 9b 74 c7 bc 34 04 ff bd
       -0.03446182 0.050778694 -0.024347594 -0.124519736
000260 72 b1 c1 3c 10 3f ea bd f3 55 0f be c4 47 1e 3c
       0.023644183 -0.114378095 -0.13997631 0.009660665
000270 40 0f 24 bd 05 01 aa 3c 3f 48 dd 3d ac c4 e5 3d
       -0.040053606 0.02075244 0.108047955 0.11219153
000280 33 8e 19 3e 58 ff 2d 3d c2 d9 18 3d a5 63 18 3d
       0.14995651 0.042479843 0.037317045 0.037204403
000290 af 2f 09 bd 80 c0 f3 bd 0f 8e 30 3e e1 52 c7 3d
       -0.03349274 -0.11901951 0.17241691 0.09732605
0002a0 cf 4a 91 bd ca fb a2 bd f3 b5 05 3c 45 e7 ff bc
       -0.07094347 -0.07958181 0.008161056 -0.031238208
0002b0 28 c6 4e bd a4 78 35 3d 65 e2 55 bd a9 6b e3 3d
       -0.050481945 0.044304505 -0.05221786 0.11104519
0002c0 3a df 09 be 16 a7 92 bc bf 15 0b 3e 1f e6 a7 bd
       -0.1346406 -0.017901938 0.13582514 -0.08198189
0002d0 40 76 b8 3d 46 dd 97 bd 4f 33 c6 bd f5 3a 3e bd
       0.090069294 -0.074152514 -0.09677755 -0.046442945
0002e0 c2 8f 19 be 09 1d 59 3d df 3e 36 be 0c ff 00 be
       -0.14996246 0.053006206 -0.17797421 -0.12597293
0002f0 ad f1 5c 3d ad fc cc 3c eb 5b fd bd 66 39 02 3e
       0.053941417 0.025022829 -0.123710476 0.12717208
000300 c7 5d 35 3d 6a 46 92 3e 70 d2 9d bd 93 ce f2 3d
       0.044278886 0.28569347 -0.077061534 0.11855807
000310 d1 9b fc 3d f2 9a 8e bc 84 8a ea 3d 8f 93 2f bd
       0.12334407 -0.017407868 0.11452201 -0.042865332
000320 8e 7c 87 3d 04 7e 5d 3c 16 bf c1 3d 06 7f a2 3d
       0.06615554 0.013518814 0.09460275 0.07934384
000330 5b 76 00 3e d8 8c ef 3d 95 98 96 3d 2b e6 f3 3d
       0.12545149 0.11696786 0.073533215 0.119091354
000340 d0 6f 19 3d b7 5c c6 3c 79 2c 2f bd a4 b9 52 bc
       0.03746015 0.024214132 -0.04276702 -0.012861643
000350 80 3f 2d 3c bd 14 7e 3d 62 ca f7 bc dd 29 47 bc
       0.010574222 0.062031496 -0.03024787 -0.012155977
000360 da 20 cb 3d 96 a9 67 3d 3a fa c9 bc 13 12 ef 3c
       0.09918375 0.056558214 -0.02465545 0.029183423
000370 6b 95 24 bc 6e 41 9f 3d 21 c8 8e bd 26 44 83 3d
       -0.01004539 0.077761516 -0.06971765 0.06409483
000380 82 c0 29 bd 83 c7 ea bb c4 0a c1 3b 47 c6 43 bd
       -0.041443355 -0.007164897 0.005891176 -0.047796514
000390 29 6e 61 3c db 03 2e 3d d0 b7 90 3d 5e dc 85 3d
       0.013759174 0.042484146 0.070663095 0.06536172
0003a0 d7 9f 9b bd 16 a8 8b 3d 2b e4 f9 3d 10 81 ac 3d
       -0.075988464 0.06819169 0.12201723 0.08423054
0003b0 ec b8 f0 bb 4f 87 84 3c 2a 22 52 3b e3 19 80 3d
       -0.007346263 0.016177801 0.003206382 0.062549375
0003c0 77 d2 11 3e 10 35 16 bd 94 7c 9e 3c dd 6c df 3d
       0.14240442 -0.036671698 0.019346513 0.10909436
0003d0 25 35 3e bd 7e 11 cc bc 9b 2a 50 3d 81 42 12 3e
       -0.0464374 -0.024910685 0.05082188 0.14283182
0003e0 eb 0c 24 3e cc cd 19 3c 86 35 d1 3d 4e 9a a2 3d
       0.16020553 0.009387445 0.10215287 0.079395875
0003f0 96 b2 42 3d 23 08 42 bd 29 28 39 3d bb 79 cc 3d
       0.047533594 -0.04737104 0.045204315 0.09984156

lstm.bias_hh_l0 f4 [256]
000000 ef 17 f8 3d 42 9a 83 3e b8 b6 a5 bd 98 82 07 3e
       0.1211394 0.25703627 -0.080914915 0.13233411
000010 cd 05 00 3e 23 6a 00 bd e7 77 ac 3c 51 57 46 bd
       0.12502213 -0.03135122 0.021053268 -0.048423115
000020 c7 ce ff b9 3e 50 56 bd 24 17 a4 3d 35 45 9e 3d
       -0.0004879145 -0.05232262 0.08012226 0.07728044
000030 3c 72 0f 3e 5c f7 e8 3b a0 b1 a3 3d 16 e3 98 3c
       0.1400842 0.0071095657 0.07992864 0.01866297
000040 1a 6a 13 3e d8 8f da 3d 74 df 88 bd ed 18 ab 3d
       0.14395943 0.10671967 -0.06683245 0.083543636
000050 88 1f fa 3c 55 62 38 3d 4b 45 91 3d d2 eb f3 bc
       0.030532613 0.04501565 0.07093295 -0.029775534
000060 7f 03 f4 3d e9 df 34 3c 29 40 00 3e 81 a9 94 3d
       0.11914729 0.0110397125 0.12524475 0.07258893
000070 30 d1 14 3e 94 62 e1 bc d4 07 f2 bc d5 8a 93 3d
       0.14532924 -0.027512826 -0.029544748 0.072042145
000080 b5 a8 0d 3d 32 71 60 3d 00 f1 b8 3c 83 fc a3 3c
       0.03458472 0.05479545 0.022575855 0.020017868
000090 dd a5 62 bd d2 11 62 3d eb b4 f1 3d 62 7a b4 bc
       -0.05533396 0.055192776 0.118020855 -0.022031013
0000a0 c3 9d 81 3b 7f 2f be 3d b7 46 1f 3c f4 ad f6 3d
       0.0039555742 0.09286403 0.00972145 0.12044898
0000b0 36 57 fe 3d 74 a4 c3 3c d0 30 49 3d 9b 3c 99 bc
       0.12418978 0.023882128 0.049118817 -0.018705657
0000c0 c1 a5 9f 3c 74 87 1f bd 6a 1c 31 bd f2 07 00 3e
       0.019488217 -0.038947538 -0.04323999 0.12503031
0000d0 49 06 0a 3c 89 41 a2 3b 66 e8 6a 3d d2 7f 4d 3d
       0.00842435 0.00495166 0.05735054 0.050170727
0000e0 f6 6d 06 3e a7 d9 85 3d 0a 38 99 3c 8f 36 aa 3d
       0.13127884 0.065356545 0.01870348 0.083111875
0000f0 32 62 be 3d af de 29 bd e2 ec 1d 3d e5 e2 af 3d
       0.09296073 -0.041472133 0.038555987 0.085881986
000100 8e bb 46 03 4a 7a 1e 02 ba c7 9e 02 cc 05 e5 82
       5.8402273e-37 1.1643102e-37 2.333065e-37 -3.3651853e-37
000110 a4 43 ad 80 0c c2 08 82 17 4f 10 02 ec 27 0d 80
       -1.5911806e-38 -1.0047391e-37 1.0602147e-37 -1.208183e-39
000120 48 ea e1 01 d7 ca 0d 83 ff 69 40 02 64 0a 88 02
       8.2988124e-38 -4.1669025e-37 1.4136352e-37 1.9989368e-37
000130 64 39 2e 00 d7 c3 52 83 7c bc af 81 e7 d6 cd 02
       4.24502e-39 -6.1938267e-37 -6.455531e-38 3.024539e-37
000140 c3 50 8d 82 5f 0d 3f 83 98 76 49 80 37 50 e1 82
       -2.0764443e-37 -5.6145205e-37 -6.746535e-39 -3.310682e-37
000150 aa f7 8d 02 07 e1 81 02 a6 91 14 02 d0 14 82 82
       2.086024e-37 1.9084006e-37 1.0915122e-37 -1.911373e-37
000160 57 9e 8f 82 88 2b c2 82 fe 18 2c 03 d5 fc ee 01
       -2.1102844e-37 -2.8530724e-37 5.0574947e-37 8.779019e-38
000170 2d 4e 31 03 98 c4 45 03 22 f1 99 02 45 4d cf 81
       5.2105366e-37 5.8118775e-37 2.2619733e-37 -7.6150667e-38
000180 30 69 6b 02 22 d7 08 83 7d 92 d3 82 a2 f3 f4 02
       1.7295261e-37 -4.021377e-37 -3.1087744e-37 3.5992416e-37
000190 94 62 fa 02 e8 ea 1e 83 3d 13 2f 83 14 f9 24 03
       3.679078e-37 -4.6701686e-37 -5.1449962e-37 4.8481196e-37
0001a0 2f 9a 1f 03 94 37 08 82 3d 90 06 03 88 6c 34 83
       4.6902895e-37 -1.0007652e-37 3.954464e-37 -5.3021834e-37
0001b0 fc b2 0c 02 82 c4 3a 81 2c b6 d4 82 3e d2 50 82
       1.0336942e-37 -3.4303792e-38 -3.1255162e-37 -1.5341763e-37
0001c0 6a aa 49 03 12 72 de 02 0a 12 4c 02 24 93 ad 80
       5.9264217e-37 3.2685441e-37 1.499273e-37 -1.5940325e-38
0001d0 6c 5b c6 81 f9 a9 8e 82 48 55 5d 03 aa 23 5a 83
       -7.2864897e-38 -2.0962584e-37 6.504396e-37 -6.4105382e-37
0001e0 64 78 0f 81 e0 7b 26 83 f0 f0 c3 02 6e 9f aa 82
       -2.6351328e-38 -4.8925217e-37 2.8790966e-37 -2.5070763e-37
0001f0 83 19 22 83 c6 b2 1c 03 74 2c 6a 83 7f 9e 00 83
       -4.7636807e-37 4.60495e-37 -6.881745e-37 -3.7797764e-37
000200 2b 82 b3 3d 29 8f 2c 3d 1e 28 06 bc 70 51 14 bd
       0.08765062 0.042128716 -0.008188276 -0.036210477
000210 f5 87 e6 bd 92 60 18 bd c5 3b f6 bc 45 ce e7 bd
       -0.112564005 -0.03720147 -0.030057797 -0.1131864
000220 20 aa 1d be 88 0a 7f bd e0 3e 9b bc af d1 d1 3c
       -0.15396929 -0.062265903 -0.01895088 0.02561268
000230 4c 9f 25 be e9 01 55 3d 9c e6 3e bd c3 e5 ff bd
       -0.16174048 0.052003775 -0.046606645 -0.124949954
000240 17 2f 0e 3e e4 e3 23 be 80 94 e9 3c 0a 5f e5 bd
       0.13885151 -0.16004902 0.028513193 -0.11199768
000250 0a 4b 0a be f4 fe 51 3d 1a 57 fc bd ae d8 36 be
       -0.13505188 0.051268533 -0.12321301 -0.17856094
000260 28 a1 c4 3d 57 5c a9 bd 89 06 02 be 86 ac e2 bd
       0.096010506 -0.082695656 -0.12697805 -0.110680625
000270 c2 d4 34 be fb 7b d8 3d a2 b8 2a bd a9 64 25 bd
       -0.17659286 0.105705224 -0.041679986 -0.0403792
000280 cf 43 ff 3d a6 25 f2 bd b7 6b a5 bd 5c 4c 30 3c
       0.12464105 -0.11823587 -0.080771856 0.010760393
000290 55 9b bd bc 3d b1 20 bd 88 5e 13 3e a0 90 59 3d
       -0.023145357 -0.039231528 0.1439153 0.05311644
0002a0 a4 2f 22 be 48 ca 95 bd 4b 27 b4 3d 18 b8 32 3e
       -0.15838486 -0.07313973 0.08796557 0.17453039
0002b0 d5 1a e0 bc cc fe 1f 3c 3a 12 fe 3d a1 e3 69 bd
       -0.027356545 0.009765338 0.1240582 -0.05710185
0002c0 0b 51 97 bc 22 72 32 be a7 90 a4 3d 41 b8 d0 bd
       -0.018471261 -0.1742635 0.08035403 -0.10191394
0002d0 ea 2c e2 3d 6d fd fe bb 5c 48 c8 bd ac 38 4b bd
       0.11043723 -0.0077816756 -0.097794265 -0.049614593
0002e0 2b 05 29 be 9d be 88 3d a0 32 3a bd ee 87 c4 bd
       -0.16505878 0.066769816 -0.045458436 -0.09596239
0002f0 e0 b1 18 be 99 81 19 bb 42 70 ed 3c 03 58 c2 3d
       -0.14911604 -0.0023423193 0.028984193 0.09489443
000300 db 6e bc 3c 84 46 96 3e dd 81 bb 3d 1d 54 18 3e
       0.023002079 0.29350674 0.09155629 0.14875837
000310 a1 39 e7 3d d6 13 7f 3d a3 da 28 3d 94 f2 8a bd
       0.11290289 0.062274776 0.041224133 -0.06784549
000320 f3 43 d6 3d bd 02 8c 3d 05 e3 65 3d 06 c4 7c bb
       0.10462179 0.0683646 0.056124706 -0.0038568988
000330 b1 56 3c 3c 89 d4 cf 3c 91 56 fb 3d 45 7c d8 3d
       0.011495278 0.0253699 0.122723706 0.105705775
000340 12 4a e8 3d 70 98 a0 bc 8b ad f8 3c 45 69 88 ba
       0.11342253 -0.019603938 0.03035619 -0.0010407349
000350 7d 7d fb 3d 60 0d 82 3d 15 3b 46 3d d1 dc 58 bd
       0.12279794 0.06350207 0.04839619 -0.052944962
000360 91 ef 71 3d 4b b7 7b 3d d8 8c df 3c 62 3a 99 bb
       0.05906636 0.0614541 0.02728884 -0.004676149
000370 78 31 7a bc ca c5 d0 3b 49 cf 49 3d e0 92 dd 3c
       -0.015270583 0.0063712345 0.04926995 0.027047575
000380 d0 ba e0 3d 8a 08 85 3d c2 08 d0 3b 60 71 bc bb
       0.10973132 0.06495769 0.0063487003 -0.00575082
000390 e7 6b 85 bd 5f 25 47 3d 75 4b 4c 3d d0 10 90 3d
       -0.06514721 0.048619624 0.04987665 0.07034457
0003a0 dc 51 08 3d 6b 7c 37 bd 39 0c 1d bd 23 19 fe 3d
       0.033281192 -0.04479639 -0.038341735 0.12407138
0003b0 79 d9 13 bc 5b f9 0c 3e 78 dc 38 3b 9a d8 3c bc
       -0.0090240175 0.13766997 0.0028207581 -0.011526251
0003c0 d0 25 ae 3d 82 16 0a 3e 97 29 1b bd 24 fa 03 3e
       0.08503306 0.13485149 -0.03788146 0.1288839
0003d0 37 76 22 3d 9f 11 b2 3c e2 57 65 bd f8 58 8b 3d
       0.03966352 0.021736918 -0.055992015 0.06804079
0003e0 a1 0b a4 ba 5a 8f e7 3d 2d 3c 1d 3d 9b 64 d3 bb
       -0.0012515673 0.11306639 0.038387466 -0.006451202
0003f0 f4 7d 15 3d 9d cb d3 3b 1b 41 0f 3e 97 31 97 3d
       0.03649707 0.0064634816 0.1398968 0.073825054

lstm.weight_ih_l1 f4 [256, 64]
000000 96 a2 76 3c a4 18 fa bd 61 11 83 bc b4 8f 77 bc
       0.015053412 -0.12211731 -0.015999498 -0.015109945
000010 d4 38 e7 3c a2 4e 72 bd f3 c0 3d bd ec c0 23 bd
       0.02822534 -0.05915702 -0.04632659 -0.039978907
000020 cc 9d ff ba 83 c1 a9 bc 36 46 b5 3c 26 b3 7a 3c
       -0.0019501983 -0.020722156 0.022128206 0.015301501
000030 19 01 3b 3d a4 d4 47 3d f1 3f 95 3c 39 57 3a 3d
       0.045655344 0.048786774 0.018218966 0.04549334
000040 8c c1 65 3d 70 e8 31 bd a0 16 93 3d f1 e6 30 bd
       0.056092784 -0.04343456 0.0718205 -0.043188993
000050 c0 5e 0e bc 02 7e 86 bc e4 d9 33 bd 7f dc 84 bc
       -0.008689582 -0.016417507 -0.04390897 -0.016218422
000060 49 0f f8 3c c5 c4 9c bb 0b 91 1b bd e0 36 51 bd
       0.030280726 -0.004784199 -0.03798012 -0.051077724
000070 1c 37 c2 3d 8c ff 3b 3d 33 05 f7 3c 9a a1 60 3d
       0.094831675 0.045898005 0.030153846 0.054841615
000080 4c 6f 0b 3d 0a 38 86 3d 63 70 36 3b b4 2e ba bb
       0.034041688 0.06553657 0.0027837984 -0.005681837
000090 b5 20 4e 3c 7b 95 ca bc ad 09 ff bc a8 d4 78 bd
       0.01258104 -0.024729481 -0.031132543 -0.06074968
0000a0 bc ba 39 bc 4c 9f 84 bc 67 0e ab 3c d8 64 0c bd
       -0.011336025 -0.01618924 0.020880891 -0.03427586
0000b0 3d 9c cd 3c eb 39 11 bd 33 d5 9f bd 2c 0a d7 3c
       0.025098914 -0.035455626 -0.078043364 0.026249968
0000c0 a1 0d 8c 3d 60 c4 87 3d 6c 1f c9 3c c5 84 1b 3d
       0.06838537 0.066292524 0.024551116 0.037968416
0000d0 42 02 2b bd e6 51 2d 3d f5 98 1d bd 87 d9 b3 bc
       -0.0417502 0.042314433 -0.03847595 -0.021954311
0000e0 16 ef 29 3d 4f f7 16 3d 87 10 0c bd 75 75 52 3d
       0.041487776 0.036856946 -0.03419545 0.051381547
0000f0 1f bb 52 3d cf 06 a5 3d db da 63 3d 64 86 54 bd
       0.051447984 0.08057939 0.05562864 -0.051885977
000100 f2 b5 7b 3d 29 42 f3 bd eb 91 47 bd 2f 2f 45 3d
       0.061452813 -0.118778534 -0.048723143 0.0481407
000110 bc e7 51 3b eb 3d f5 bd 4d f7 01 3d ea 82 97 3d
       0.0032028994 -0.119747005 0.031729985 0.07398017
000120 5b 9f ca 3c a7 72 fe 3c af 5a 62 3d 83 73 69 3d
       0.02473419 0.03106053 0.055262264 0.056994926
000130 27 dc b6 bc 7a 8f e3 bc 0a 2c 95 bb 35 73 01 bd
       -0.022321774 -0.027778376 -0.004552369 -0.03160401
000140 02 f7 56 bc a4 50 89 bd e8 1d ed 3c 7e d3 ca 3d
       -0.013120415 -0.06704834 0.028944924 0.0990362
000150 de 35 d8 bc f6 aa 59 bb 13 96 28 bc 66 f7 d4 bc
       -0.026392873 -0.0033213473 -0.010289687 -0.025996875
000160 6a 52 e3 bd 0c d3 2b bd 19 db e1 3c 82 8b e9 3d
       -0.110997036 -0.041949317 0.027570294 0.11403562
000170 3a 36 af 3d 2b 2e ca bc a7 c0 d9 bd df ba dc bd
       0.08555265 -0.024680218 -0.10632449 -0.1077783
000180 56 df 77 bd c1 a0 a3 3d de f1 c2 bc 1e f8 78 bc
       -0.060515724 0.07989646 -0.023796972 -0.0151958745
000190 06 64 67 bd c2 b8 16 bc fb 32 84 3c 40 77 ee bc
       -0.056491874 -0.009199323 0.01613759 -0.029109597
0001a0 2b 8b 5c 3d 2e b4 0b 3c 9c 7d f5 3c 89 c4 3b bd
       0.05384366 0.008526845 0.029967122 -0.045841727
0001b0 61 3c 88 bc 88 9e f7 bd 21 42 e4 3a 22 ba 0a 3a
       -0.016630353 -0.12090784 0.0017414727 0.0005292018
0001c0 43 07 b6 3d 04 ae 60 3d 7e 15 61 3d 8b 20 bd 3d
       0.08888104 0.054853454 0.054952137 0.09234723
0001d0 53 85 2a 3c fc 50 2b 3d 46 d2 3d bd dd e3 30 bd
       0.0104077635 0.04182528 -0.04634311 -0.043186057
0001e0 97 3f 0c 3d 41 a0 fd bb 8e c7 a3 3d 2a 22 59 bc
       0.03424033 -0.007740051 0.079970464 -0.013252774
0001f0 34 95 50 bd ab 4a 95 3b e4 18 ab 3d 8b d0 e1 bb
       -0.05092354 0.0045560203 0.08354357 -0.0068913153
000200 89 e4 3a 3b e0 a3 19 be 9a a4 f8 3c 6a 71 6d bd
       0.0028517565 -0.1500392 0.030351926 -0.05796949
000210 10 14 a4 bc 8b 9f 1f bd b8 09 42 bd 22 64 70 bc
       -0.020029098 -0.03897051 -0.04737255 -0.014672311
000220 2e 88 57 3c 11 39 7d bc 8c 75 43 bc 65 44 86 bc
       0.013155026 -0.0154555 -0.011929881 -0.016390035
000230 0c 5e 92 bc b3 07 6b 3c 6b 39 7f bd 8b af 90 bd
       -0.01786711 0.014345097 -0.062310617 -0.07064732
000240 de 8b 84 ba 4e 91 b2 bb 1d 86 50 3d 94 f9 d6 bb
       -0.0010112484 -0.0054494506 0.05090915 -0.0065605137
000250 b8 7d 16 3a 37 9d a9 bc 05 93 3e bc 9c df 10 3c
       0.00057407795 -0.020704849 -0.011631732 0.008842375
000260 55 2d 88 3c ca ac a2 bc 7f 59 67 bd 67 62 bf bb
       0.016623178 -0.019857783 -0.056481835 -0.005840588
000270 c7 a0 4c 3d 09 ea 14 3d 24 33 5e bd fa 15 f0 3c
       0.049958017 0.036356006 -0.05424799 0.029307354
000280 2a 67 c3 3c 7c 88 69 b9 f9 85 84 bc 52 e1 47 3b
       0.023852903 -0.00022271456 -0.016177164 0.0030499292
000290 f0 f9 c6 3c 38 b0 22 3c 85 68 59 3d 67 86 db bc
       0.024289101 0.009929709 0.053078193 -0.026797486
0002a0 99 58 24 bc d5 4c ea bc a9 19 27 3d 2b fc fb bc
       -0.010030889 -0.02860109 0.040795956 -0.030759891
0002b0 00 cc 2d bb 7c f6 c4 3b f1 1e d2 bc 6c cd e3 3c
       -0.0026519299 0.0060108285 -0.02564952 0.027807914
0002c0 a1 72 41 3d c2 42 12 3d ed 6d 8c 3c 4f 00 34 3c
       0.04722846 0.035708196 0.01714226 0.010986402
0002d0 e6 26 76 bc 7e c0 1c bd 58 0c 86 bd 20 2f da bb
       -0.015023923 -0.038269512 -0.06545323 -0.00665845
0002e0 13 33 e5 bc 7b 99 c3 bc 06 40 ca bc 39 cc 16 bc
       -0.027978456 -0.023876896 -0.024688732 -0.009203964
0002f0 d9 5f 12 bd 29 ba a7 3c ca 83 04 3d 26 22 c8 bc
       -0.03573594 0.02047451 0.032352246 -0.024430346
000300 c8 62 a0 bc c5 a7 b7 bd 29 b8 0b 3d 52 11 d1 bc
       -0.019578353 -0.089675464 0.034111176 -0.025520954
000310 31 fa f8 bc e0 38 95 3d 5b e1 81 bc 31 42 a5 3c
       -0.030392738 0.07286239 -0.015854528 0.020173164
000320 78 6e 78 bd 61 55 5c bd 82 b2 4c 3d 4e b7 b5 3c
       -0.060652226 -0.05379236 0.049974926 0.022182133
000330 04 1d 5a bd f4 d7 9d 3d 88 ca 77 3d 25 1a 95 3c
       -0.053250328 0.077072054 0.060495883 0.018200943
000340 2c 7e 9b 3d c9 1b 63 bd dc d4 36 bc 9d 7e 99 3b
       0.07592425 -0.05544642 -0.011159148 0.004684283
000350 f1 61 05 3d 52 28 2c bd c1 ea b9 bb ff 46 22 bd
       0.032564107 -0.04203064 -0.005673737 -0.03961849
000360 40 76 26 3d 9f b1 3f 3c be ce 2f bd 51 a5 04 bd
       0.040640116 0.011700063 -0.042921774 -0.03238422
000370 ac 49 ea 3c 75 01 65 3d c1 60 79 3d d3 70 8d bc
       0.028599583 0.055909593 0.060883287 -0.017265713
000380 9b 80 95 bd 6f f9 c7 bc 13 bd 76 bc 85 6d 6e bc
       -0.0729992 -0.024410931 -0.015059727 -0.014552479
000390 7f 3a 11 bd ca 8c 82 3d 64 91 5f bc e1 11 3c bd
       -0.035456177 0.0637451 -0.013645504 -0.04591549
0003a0 ce f5 20 bd ad 23 46 3d df 4f 92 3d 8c 18 82 3d
       -0.039296918 0.048373867 0.071441405 0.06352338
0003b0 e1 73 88 bd 57 91 5d 3d 21 82 59 3c 89 d9 ca 3c
       -0.06662727 0.054093685 0.013275654 0.024761932
0003c0 4e b1 97 3d 6d 8e df bc ea 69 db bb 04 83 55 38
       0.07406865 -0.027289594 -0.0066959755 5.0905175e-05
0003d0 b0 c1 08 3d c5 bb 2c 3d 47 44 5b 3d f2 f6 c6 39
       0.03338784 0.04217126 0.05353191 0.00037949492
0003e0 b0 17 87 bd 5b 6f 15 3d 43 44 df 3c 73 6d 27 3d
       -0.06596315 0.03648315 0.02725423 0.040875863
0003f0 b4 76 68 bd bc 2f 8f bd 22 2d 58 3d 81 d5 fb 3c
       -0.05675383 -0.069915265 0.052777417 0.030741455

lstm.weight_hh_l1 f4 [256, 64]
000000 ee bd b9 02 78 ba 3b 03 97 68 00 03 81 c9 98 82
       2.7292321e-37 5.5168417e-37 3.7735882e-37 -2.245005e-37
000010 6e 0f 32 83 32 7e 04 83 93 a8 3a 03 66 a3 05 83
       -5.232721e-37 -3.893618e-37 5.4854e-37 -3.927276e-37
000020 9c 80 e1 02 66 81 89 81 5f 41 25 83 18 a0 d3 02
       3.3134597e-37 -5.051153e-38 -4.8564184e-37 3.1095553e-37
000030 e9 63 4d 03 bb 14 48 02 5d 6f b8 01 a8 c8 8c 82
       6.0358777e-37 1.4699629e-37 6.7750724e-38 -2.0686322e-37
000040 e0 c6 86 80 c6 5a 42 83 2c 2b de 02 96 9f 08 83
       -1.23773e-38 -5.711568e-37 3.2644748e-37 -4.0150004e-37
000050 1a 83 dd 82 72 0c 23 83 4c a1 0d 83 cc e8 96 82
       -3.254828e-37 -4.791568e-37 -4.1621336e-37 -2.2174138e-37
000060 01 c9 56 83 82 43 a1 81 a8 fa 2c 83 24 2d 57 83
       -6.311969e-37 -5.923893e-38 -5.0833996e-37 -6.323464e-37
000070 fc 2f e1 82 fc b4 24 03 94 1e 1e 03 37 fd 59 82
       -3.308832e-37 4.840303e-37 4.646713e-37 -1.6015311e-37
000080 d8 b3 39 03 3c 4a ea 01 87 0b 8c 82 73 3f 00 02
       5.4573064e-37 8.6064546e-38 -2.0577768e-37 9.422164e-38
000090 15 15 67 83 10 83 87 80 28 82 16 81 f8 4a 50 03
       -6.7909e-37 -1.2444808e-38 -2.764403e-38 6.1211766e-37
0000a0 7a e9 81 81 ca 56 2e 03 8a c2 3c 02 d9 ee b2 82
       -4.772214e-38 5.1233633e-37 1.3867889e-37 -2.6291841e-37
0000b0 c8 87 f9 00 68 7b 67 83 ca de 98 02 72 8b 66 02
       2.2915748e-38 -6.802646e-37 2.2462267e-37 1.693775e-37
0000c0 cf 4b 13 03 e4 10 1d 02 58 9d 30 81 c4 81 a8 02
       4.328644e-37 1.1539386e-37 -3.2438983e-38 2.4759863e-37
0000d0 4c 81 cc 02 50 87 23 81 48 af 5d 00 aa 1c a0 02
       3.0049319e-37 -3.0035454e-38 8.60358e-39 2.352634e-37
0000e0 a8 40 5f 80 fe 7f dd 81 8a ac a6 82 f8 65 46 83
       -8.747566e-39 -8.136624e-38 -2.449054e-37 -5.8304025e-37
0000f0 eb 1b a3 02 57 f0 14 83 42 95 49 81 1c 24 d1 82
       2.3966722e-37 -4.3769188e-37 -3.7024957e-38 -3.0730516e-37
000100 9a 3d b8 02 f0 01 83 82 d9 89 0d 83 af 09 0c 03
       2.7071728e-37 -1.9249832e-37 -4.1594417e-37 4.115342e-37
000110 81 18 17 03 3b eb 0a 83 ac 74 04 02 9a 7a 22 02
       4.440304e-37 -4.0824586e-37 9.731312e-38 1.1937065e-37
000120 d0 41 44 03 c8 2f 24 03 7a 8b 19 83 d6 42 bb 02
       5.767477e-37 4.825012e-37 -4.512277e-37 2.7515542e-37
000130 0c 5f 0e 02 78 9b bf 02 e4 9e 4e 03 5d ac d1 82
       1.045979e-37 2.8154162e-37 6.0720357e-37 -3.0808722e-37
000140 da 74 b7 02 f8 a9 14 03 d0 3a ef 80 03 cb 0b 83
       2.6956503e-37 4.3688406e-37 -2.1969782e-38 -4.1081475e-37
000150 0c dd 4c 03 cd 54 32 03 78 91 71 81 40 fe bf 02
       6.020396e-37 5.2406845e-37 -4.4369078e-38 2.821086e-37
000160 14 73 41 83 a0 f8 3b 83 ea 33 10 01 f3 8e 0e 03
       -5.6849706e-37 -5.523977e-37 2.648587e-38 4.1894147e-37
000170 fa 71 02 02 94 43 05 03 81 61 4d 83 ca a2 22 83
       9.583601e-38 3.9162763e-37 -6.0356014e-37 -4.7794394e-37
000180 20 28 31 82 8d 2b 55 03 52 6c 42 03 e0 f1 48 80
       -1.3015422e-37 6.264507e-37 5.713582e-37 -6.698924e-39
000190 b8 22 d9 02 1a bb 2a 03 18 7f c1 01 44 5e 89 82
       3.1905212e-37 5.017329e-37 7.1079374e-38 -2.0184447e-37
0001a0 c8 04 1a 82 f8 22 62 83 fd b8 5b 03 71 91 11 82
       -1.1315505e-37 -6.6455573e-37 6.457067e-37 -1.0694657e-37
0001b0 00 b1 73 81 e4 74 56 82 52 2f 31 83 e0 07 8b 80
       -4.4759042e-38 -1.5755783e-37 -5.2069946e-37 -1.2767959e-38
0001c0 c0 73 b3 82 51 0c 20 03 55 9a e2 81 09 96 7c 82
       -2.6368123e-37 4.7033913e-37 -8.3240744e-38 -1.8557094e-37
0001d0 00 c8 cf 01 19 01 86 82 f7 81 e1 82 4c 8e 31 83
       7.6326777e-38 -1.969016e-37 -3.3135375e-37 -5.2178974e-37
0001e0 7e 82 67 83 62 c8 9e 82 fc 59 c5 82 18 85 bd 82
       -6.8034596e-37 -2.3331028e-37 -2.8998197e-37 -2.7847446e-37
0001f0 12 5c 94 82 9a f9 d1 81 bc 76 12 81 2a bc 7f 82
       -2.1799491e-37 -7.7132635e-38 -2.6901153e-38 -1.8788442e-37
000200 f8 ea 84 02 4a 62 58 83 a4 3b 43 82 e4 e6 b2 01
       1.9530522e-37 -6.3589525e-37 -1.4343453e-37 6.5718185e-38
000210 b0 e2 05 02 f9 35 c2 82 94 aa 07 03 79 d3 3d 03
       9.836353e-38 -2.8536717e-37 3.986875e-37 5.5784867e-37
000220 fd 63 fd 02 00 a9 bc 82 c4 11 3e 02 d0 63 f6 01
       3.72324e-37 -2.7721118e-37 1.3964094e-37 9.050935e-38
000230 ae d3 89 02 71 a7 ca 81 b0 1b 19 01 d0 2f b6 80
       2.025184e-37 -7.444335e-38 2.8121527e-38 -1.6731212e-38
000240 76 35 0e 03 d2 ac cc 02 2c aa 40 82 bc 80 a8 82
       4.179142e-37 3.00743e-37 -1.4154769e-37 -2.4759271e-37
000250 28 d8 d9 82 70 e1 78 01 12 92 13 83 80 68 fc 81
       -3.2009352e-37 4.571215e-38 -4.33671e-37 -9.272013e-38
000260 3c 4d 27 01 53 d4 b4 81 32 b5 0a 02 e2 b7 72 01
       3.072847e-38 -6.642623e-38 1.0190639e-37 4.458031e-38
000270 c4 b1 1d 03 de 75 c8 01 cc 73 9e 81 2c 03 18 83
       4.634222e-37 7.363753e-38 -5.8206194e-38 -4.4672426e-37
000280 96 d1 44 83 f8 be a1 02 17 61 4e 03 cc b7 29 02
       -5.7839816e-37 2.3766434e-37 6.0649413e-37 1.2468906e-37
000290 e5 f1 a9 82 b6 3c af 02 c9 30 17 83 d1 bd 3f 02
       -2.4971159e-37 2.5748785e-37 -4.4430914e-37 1.4086938e-37
0002a0 d5 71 47 83 ca f8 a4 02 b1 dd 9f 82 86 88 f2 81
       -5.8611517e-37 2.4240432e-37 -2.3490195e-37 -8.909266e-38
0002b0 7f 0b 9a 02 0e 31 b8 01 7c cd c2 82 01 bf ae 02
       2.2634865e-37 6.7661315e-38 -2.862368e-37 2.5676633e-37
0002c0 67 fa 54 83 dc 11 ab 02 e4 8f 2d 83 82 28 98 82
       -6.258865e-37 2.5136443e-37 -5.100531e-37 -2.2357643e-37
0002d0 b9 b9 40 83 52 82 ed 82 85 c1 51 83 7d 38 13 82
       -5.663693e-37 -3.489882e-37 -6.164173e-37 -1.0816066e-37
0002e0 a2 1b 09 83 fb 58 14 83 68 73 fc 02 32 0d 25 03
       -4.0292402e-37 -4.3595436e-37 3.7094312e-37 4.850429e-37
0002f0 e5 93 6a 03 14 58 6f 83 af df e7 82 0c 76 43 83
       6.8936194e-37 -7.0336896e-37 -3.4070787e-37 -5.744086e-37
000300 f2 96 a8 02 80 0a 6e 83 2d 80 5b 03 3f 6a 6f 03
       2.477202e-37 -6.9953967e-37 6.4505454e-37 7.035775e-37
000310 a8 3a 8a 02 8b 14 4c 03 26 4b 1a 83 a6 eb 5b 01
       2.0310945e-37 5.9973794e-37 -4.53428e-37 4.0393017e-38
000320 af d5 67 02 01 41 3b 02 e4 cc d3 81 d0 ed 86 80
       1.7032524e-37 1.3757245e-37 -7.780316e-38 -1.2391268e-38
000330 62 1f 11 83 62 fd da 82 f6 f7 27 82 57 5e 19 83
       -4.2647696e-37 -3.2177656e-37 -1.2340384e-37 -4.5070956e-37
000340 10 2e 0a 01 cc 8b 38 01 fe b3 ea 82 06 b0 ca 82
       2.5379645e-38 3.3895762e-38 -3.448652e-37 -2.9782265e-37
000350 00 7b 95 82 50 b1 25 02 d8 27 46 82 58 dd dc 80
       -2.196418e-37 1.2173172e-37 -1.4558177e-37 -2.0283212e-38
000360 83 8e 28 83 74 e2 ae 82 fd a8 38 03 f5 12 38 83
       -4.953436e-37 -2.569698e-37 5.426673e-37 -5.40945e-37
000370 8f 9b a6 02 f7 6e a4 02 f7 81 e1 82 50 c8 ef 82
       2.4480794e-37 2.4161325e-37 -3.3135375e-37 -3.5232867e-37
000380 45 2a 50 03 b0 ad 39 03 bb 48 17 83 4b 21 0e 83
       6.117423e-37 5.4565997e-37 -4.44584e-37 -4.176827e-37
000390 bc ce 9f 82 c4 a0 0b 83 10 50 91 02 26 30 2f 83
       -2.348161e-37 -4.103298e-37 2.1351789e-37 -5.148315e-37
0003a0 71 a2 6e 83 55 6e 09 03 da e5 04 03 53 f1 c4 82
       -7.0128387e-37 4.0387336e-37 3.905517e-37 -2.8938125e-37
0003b0 22 56 36 02 50 68 9a 02 8f 6c 65 02 a1 1a 49 03
       1.3395967e-37 2.2688139e-37 1.6855418e-37 5.909916e-37
0003c0 ee 6a 74 82 aa 86 10 83 bc d6 cf 02 c8 c5 c1 02
       -1.7956976e-37 -4.2472383e-37 3.0539168e-37 2.8472322e-37
0003d0 90 80 26 82 cc e4 d1 80 2d 94 3b 83 ae e8 fa 01
       -1.223265e-37 -1.9275696e-38 -5.512446e-37 9.2169375e-38
0003e0 ac ef 4e 02 d4 32 12 83 d0 7f ce 82 a0 e3 0e 03
       1.5203272e-37 -4.296389e-37 -3.034234e-37 4.199135e-37
0003f0 dc 4a 9d 82 d3 c5 41 83 13 ce 18 03 00 d4 3c 83
       -2.3112044e-37 -5.6944693e-37 4.4905347e-37 -5.54916e-37
