models/model.pt (torch, 378811 bytes, 14 tensors)

lstm.weight_ih_l0 f4 [256, 39]
000000 53 72 a2 3d ba 15 53 bc 8a 9a 05 3d f1 e7 99 bc
       0.07931962 -0.012883598 0.032618083 -0.018787356
000010 51 52 f4 bc 6e 3c 9c 3b ee 94 90 bc 73 1e 74 bd
       -0.029824408 0.004767946 -0.01764914 -0.05959935
000020 5a 4b db bc 37 22 d7 ba e7 a9 02 3b c6 81 1c 3b
       -0.026769329 -0.0016413395 0.0019937695 0.0023881062
000030 76 96 0f bb c9 ba 66 bd 58 ff 70 bd 5b 72 47 bd
       -0.002190975 -0.056330476 -0.058837265 -0.048693042
000040 e9 d7 d8 3c 21 13 81 bc 48 97 46 3d b8 85 18 3c
       0.026470141 -0.015756192 0.048484117 0.009309225
000050 fb 2a d4 3c 81 89 4d bd 37 04 87 3c be 04 90 bc
       0.025899401 -0.050179962 0.016481502 -0.017580386
000060 84 e2 5e 3d 14 69 aa 3c be 53 15 3d d6 4a 9b 3b
       0.05441524 0.020802058 0.036456816 0.0047391457
000070 cd ec c9 3d 6c 1a e4 3a a5 eb e7 3d c2 f9 81 bc
       0.09859619 0.0017402894 0.113242425 -0.015866164
000080 3e 05 36 bc 20 b7 c4 bb a9 0c 84 3d 4f 6f 00 bc
       -0.011109648 -0.0060032755 0.06447727 -0.007839038
000090 fd 46 a9 3a bb 35 fa 3c 7d 90 cb 3c 8e 2c a2 3c
       0.0012914833 0.030543199 0.02484917 0.019796636
0000a0 5d 22 22 bd f1 81 dd bb 15 88 08 3e dc 7d e8 3d
       -0.039583553 -0.006759875 0.13333161 0.11352131
0000b0 ba dc 25 bc a9 3d f7 bc b2 77 6a bd 1d 24 83 3d
       -0.010123426 -0.030180769 -0.057243057 0.064033724
0000c0 2e 4b b1 3d dd b5 0b bd a9 33 f2 3b 80 44 a8 bc
       0.086569175 -0.034108985 0.0073914123 -0.020540476
0000d0 da 13 17 3c 26 86 87 3d 23 5a 23 bb 5f 93 52 3d
       0.009221042 0.06617384 -0.0024925552 0.051410075
0000e0 b4 df a7 bc 17 05 20 bc d1 e0 b9 3d 8f ee d7 3d
       -0.020492412 -0.0097668385 0.090760835 0.10543548
0000f0 43 f3 c1 3d 2e 09 d1 3d 11 64 9d 3a a5 93 0e 3e
       0.094702266 0.10206829 0.0012007972 0.1392351
000100 d9 e5 20 bd d8 85 12 3e bf 23 ca 3c 48 13 12 3e
       -0.0392817 0.1430887 0.024675248 0.14265168
000110 8a e1 bc 3b ad 1d 4f 3b e3 7e 29 3d 33 cf f3 bc
       0.005764191 0.0031603382 0.041380774 -0.029761886
000120 66 e9 fb 3b e6 ef b0 3d e6 e9 66 bd 55 ae f0 3d
       0.0076877354 0.08639507 -0.056375407 0.11752001
000130 88 7a e9 3c 32 93 05 3c 2c 8d 56 3c 0d 18 d8 bc
       0.02850081 0.00815277 0.013095181 -0.026378656
000140 eb 9f bd 3d 73 cf 9b 3c a3 f8 94 3d f3 db 2a bc
       0.092590176 0.019019818 0.07273986 -0.010428417
000150 86 a5 ab 3d ef 23 14 bd a1 71 93 bd 70 d5 21 3d
       0.083811805 -0.03616708 -0.07199407 0.03951019
000160 10 16 7d bc c7 bb 30 3b 18 53 ca 3d ef e9 25 bd
       -0.015447155 0.0026967393 0.0987913 -0.0405063
000170 49 df ab 3c 95 df 1c 3c aa 4d b1 3d b9 ee ea bc
       0.020980494 0.0095747905 0.08657391 -0.028678285
000180 6d 63 9c bd d7 b6 a6 bd ff a0 f1 bb f9 c6 c3 3c
       -0.076361515 -0.08140343 -0.0073739286 0.023898588
000190 a0 31 58 3c b7 b9 21 3d 33 83 d9 3c 87 93 35 3d
       0.013195425 0.039483752 0.026551818 0.044330146
0001a0 78 ce a5 3d 35 b0 88 bc 65 4d 38 bd d9 f1 93 3b
       0.080960214 -0.016685585 -0.044995684 0.0045149145
0001b0 57 cd 9a 3d 2b b0 07 3e d1 49 a4 3d 87 42 01 3d
       0.07558697 0.13250796 0.08021892 0.031557586
0001c0 2f 73 62 3d f3 4a 8a 3c c5 da 59 3d 88 d7 6b 3d
       0.05528563 0.016881442 0.05318715 0.057578593
0001d0 ca 21 c2 3d 6a 3a d0 3d a8 3b 8e 3d 62 99 a6 3d
       0.09479101 0.101673916 0.06944972 0.08134724
0001e0 10 9e e1 3d 52 58 b1 3d 06 35 1f bc 65 2b 66 bb
       0.11016476 0.08659424 -0.009717232 -0.003512108
0001f0 90 f7 34 3d 6f 7e d0 3d c3 cd 8d 3b 2d 86 ab 3d
       0.044181406 0.10180365 0.004327507 0.083752014
000200 ed 7e aa 3b 40 45 f8 3d 81 a0 d1 3d 9a d7 58 3d
       0.005203119 0.121225834 0.10235692 0.05293999
000210 09 bd d0 bc 20 75 e8 3c b2 df c3 bc 8a 08 30 3d
       -0.025480764 0.028376162 -0.023910377 0.042976893
000220 67 e9 bd 3c 66 11 01 bd d2 ca aa 3d be 01 d8 3d
       0.023182584 -0.031510733 0.08339466 0.10547207
000230 0b 0e 75 bb c0 bc 95 3c 6f f5 39 3b 04 1b bf 3d
       -0.0037392403 0.01827848 0.002837505 0.09331325
000240 f2 8a 27 3d 26 e0 90 3d 78 9c 39 3b 39 d7 e2 3c
       0.040903993 0.07074003 0.0028322022 0.027690517
000250 3c 75 a3 3c 8f 1a d9 3d a6 0d c0 3b e5 c9 72 3b
       0.019953363 0.10600769 0.005861002 0.0037046608
000260 c4 35 c6 3d c6 dd b4 bc cd 3c 17 ba 02 20 d9 3c
       0.09678224 -0.022078406 -0.0005769253 0.02650452
000270 d9 04 7a 3d 81 5d e0 3d ee 9a a2 bd 40 c9 4a 3d
       0.06103978 0.109553345 -0.07939707 0.049508333
000280 aa c6 92 bd 70 2b 02 bd d4 7e 19 3d 14 8e a5 3d
       -0.071667984 -0.031779706 0.03747447 0.0808374
000290 88 bf d5 3d 1a 26 c5 3d 54 7b e0 3d f1 74 a8 3b
       0.10436922 0.09626408 0.10961023 0.0051408936
0002a0 ad 03 68 bd 51 6e 23 bd 22 f4 14 3d ec 26 32 bc
       -0.05664413 -0.039900128 0.036365636 -0.0108735375
0002b0 a3 35 dd 3d 5b 14 bb bc bf cb 31 3d 0d d7 15 bc
       0.10801246 -0.022836855 0.043407198 -0.00914551
0002c0 2f e6 be 3d 86 23 af 3c b0 70 65 bd 3d 89 59 bd
       0.09321248 0.021379244 -0.05601567 -0.053109396
0002d0 1b a4 c6 3c ff 2e a6 bd 1c 3f 84 3d ca b1 f4 3d
       0.024248173 -0.081144325 0.0645735 0.11947973
0002e0 f6 89 04 bd 1c 64 c1 3b 63 86 da 3b 57 f0 bf 3d
       -0.032358132 0.0059018265 0.006668852 0.09372013
0002f0 b2 46 c4 3d 9a af a9 3c cf 06 ef 3d f8 88 38 bd
       0.095837966 0.020713616 0.116712205 -0.0450525
000300 7e f7 2c bc cf dc ac 3d a1 7a cb 3c bd a6 7a 3d
       -0.010557054 0.084405534 0.024838747 0.06119417
000310 18 24 be bd 6b 49 ff bc 11 b8 00 bd 4c 0f 8d 3d
       -0.09284228 -0.031162938 -0.03142554 0.06887683
000320 e5 8e c1 3c 4c a0 3d bb d0 4c 06 3d 6d 70 81 ba
       0.023627708 -0.0028934656 0.032788098 -0.0009875424
000330 04 a9 3e bb 8d 0d 60 bc 92 69 03 3b e6 cd 80 3d
       -0.002909244 -0.013675106 0.0020051938 0.06289272
000340 89 28 19 3d fe f4 ec 3b 65 58 b1 bd af d3 85 3d
       0.037392173 0.007231354 -0.08659438 0.06534516
000350 80 72 e7 bc 46 71 d7 bb 51 69 ad bd ec 4c 9c bd
       -0.02825284 -0.0065747825 -0.08467353 -0.07631859
000360 cc 39 3d bd 40 2c 24 3c 8b 27 23 bd bd c0 84 3d
       -0.046197698 0.010020316 -0.039832633 0.064820744
000370 ef 96 9c 3d 11 f4 9c 3c 8b ab 32 bc 5c a6 4b 3d
       0.07645976 0.019159349 -0.010905157 0.0497192
000380 69 f4 be 3b 8e 56 d7 3d 17 bd 7c bd e4 12 a0 3d
       0.005827476 0.10514556 -0.061703768 0.07816103
000390 cc 1a 10 bd d2 6f a0 bd 2d 60 ca bc e5 78 7b bc
       -0.035181805 -0.07833828 -0.024704063 -0.015348648
0003a0 d4 e7 16 bd ff 06 5b bc 8d 88 33 bd 1b 59 1a 3d
       -0.036842182 -0.013368367 -0.043831397 0.037682634
0003b0 f3 0c 75 bd 8a 10 f6 bc 2f da e4 bc d1 85 f7 bb
       -0.059826802 -0.030037183 -0.02793607 -0.007553794
0003c0 a7 6c 42 3d 44 c4 13 3c 34 0b db 3b fd ea e2 bc
       0.0474669 0.009018961 0.006684685 -0.027699942
0003d0 0d 09 ba bc 63 ba 09 3b 87 4b cd bc 0b 07 4e 3d
       -0.022709394 0.0021015636 -0.025060428 0.050299685
0003e0 ac 13 6c 3d 19 82 41 3d 6c f4 91 bc 91 f0 ac bc
       0.057635948 0.04724321 -0.017816745 -0.021110805
0003f0 08 3d 0d bd 3b 6e 41 3d 5b 2e 7f 3d 58 8a 74 bd
       -0.034482032 0.047224265 0.062300067 -0.059702247

lstm.weight_hh_l0 f4 [256, 64]
000000 c0 3a 28 03 a4 5a 68 83 b8 76 65 00 5b 14 28 03
       4.9438204e-37 -6.8282723e-37 9.317973e-39 4.939413e-37
000010 26 3c ac 82 89 06 43 03 46 7d 96 81 4c 01 f9 02
       -2.5307652e-37 5.731285e-37 -5.5281056e-38 3.6588006e-37
000020 7b 95 b4 82 09 41 ce 81 00 83 20 03 26 1b ac 82
       -2.653442e-37 -7.576577e-38 4.7170155e-37 -2.528871e-37
000030 ba f1 04 03 38 ce 4f 83 90 e7 79 80 56 63 ac 02
       3.90688e-37 -6.106856e-37 -1.1195164e-38 2.5330145e-37
000040 a8 71 15 01 40 13 1b 01 80 36 88 02 5f 1f 0e 03
       2.7448522e-38 2.8482815e-38 2.0014685e-37 4.176606e-37
000050 bb 63 2a 03 c8 69 0e 00 4e 72 99 81 7c 1c 14 03
       5.0072995e-37 1.323644e-39 -5.6367343e-38 4.352599e-37
000060 b8 7b b5 82 5d 19 6a 03 d5 c1 a7 82 7f b9 1e 03
       -2.666657e-37 6.8795535e-37 -2.4649699e-37 4.6644966e-37
000070 12 da b5 81 97 ab 56 83 56 4e 33 03 e9 92 4d 82
       -6.6801815e-38 -6.3085923e-37 5.2693297e-37 -1.5103183e-37
000080 38 2f d7 82 28 d0 3a 82 aa 3e 4f 03 4e b6 09 03
       -3.1618513e-37 -1.372486e-37 6.0903767e-37 4.0469957e-37
000090 6e 90 cf 02 35 8a 44 83 2e 4a 5c 01 85 c1 41 83
       3.0498815e-37 -5.7757877e-37 4.046084e-38 -5.693975e-37
0000a0 b4 6c 06 01 c0 13 0d 02 bb 67 10 83 cc 69 54 83
       2.4689904e-38 1.0364712e-37 -4.2436873e-37 -6.242265e-37
0000b0 4a d0 fd 02 77 95 5a 02 c7 f1 09 03 94 c7 14 83
       3.729456e-37 1.6059005e-37 4.053823e-37 -4.3722395e-37
0000c0 8f 02 a3 02 82 c2 6c 81 38 b4 a8 02 e0 52 aa 82
       2.3952166e-37 -4.3485907e-38 2.4788822e-37 -2.5026823e-37
0000d0 be 4d f6 02 65 87 31 82 00 16 d1 02 d4 15 15 83
       3.6191073e-37 -1.3042763e-37 3.0722417e-37 -4.381222e-37
0000e0 74 9d e7 82 c4 d9 90 82 68 56 0e 80 ea db 04 01
       -3.4032773e-37 -2.128389e-37 -1.316694e-39 2.4402352e-38
0000f0 79 63 56 03 a4 fa 73 02 b9 92 39 03 d5 fb 17 83
       6.3003137e-37 1.7924751e-37 5.4535043e-37 -4.4664e-37
000100 6d 64 fe 02 1d d4 46 02 f5 17 69 82 e6 12 d7 02
       3.7379587e-37 1.4607616e-37 -1.7125012e-37 3.1602258e-37
000110 b2 cb 1a 83 f6 ff 27 83 8c 3c c7 82 f7 7a 21 03
       -4.5490363e-37 -4.937072e-37 -2.9275174e-37 4.7454804e-37
000120 13 c5 36 83 2f 3b 09 83 af 3b b5 01 73 fd 6c 03
       -5.3711223e-37 -4.032862e-37 6.657454e-38 6.964511e-37
000130 b0 17 dd 02 46 37 eb 02 1a 78 cc 02 de 22 42 03
       3.2486627e-37 3.4561872e-37 3.004404e-37 5.70515e-37
000140 7c 36 42 83 54 50 aa 02 9b d1 82 02 1a e3 f9 02
       -5.707402e-37 2.502536e-37 1.922209e-37 3.6717612e-37
000150 45 62 49 03 60 67 5a 00 e4 fb 05 83 4b 43 56 03
       5.91814e-37 8.302279e-39 -3.9374343e-37 6.2966196e-37
000160 2a 25 b1 82 9f e1 57 83 39 14 77 82 3c e0 00 03
       -2.6029144e-37 -6.344182e-37 -1.8152498e-37 3.7873228e-37
000170 76 0d 67 83 6d 86 e0 02 cc d7 f7 02 a1 4f 20 03
       -6.790025e-37 3.2990998e-37 3.641725e-37 4.7111184e-37
000180 5e a8 b8 02 62 6d 58 83 5c 03 39 81 f6 4e 17 81
       2.7133008e-37 -6.360226e-37 -3.3981544e-38 -2.7790972e-38
000190 78 5a cb 02 c4 8d 5f 83 8d 7e 45 83 7f 4d 14 83
       2.9880096e-37 -6.569655e-37 -5.803837e-37 -4.358225e-37
0001a0 24 86 00 82 f4 9d 38 01 89 03 bb 82 2d b6 22 03
       -9.442451e-38 3.3908788e-38 -2.747921e-37 4.781665e-37
0001b0 ea 87 ee 01 95 79 5d 82 a4 0a 5e 02 95 8d 50 83
       8.762242e-38 -1.6271408e-37 1.6313038e-37 -6.1288234e-37
0001c0 a7 89 23 02 44 10 1a 83 18 1c 31 03 5c 89 05 03
       1.2014853e-37 -4.5275205e-37 5.2047875e-37 3.924287e-37
0001d0 d4 cb 42 02 66 ef 82 82 ee f0 5b 03 7c f7 8a 02
       1.4311365e-37 -1.9239191e-37 6.463489e-37 2.0419327e-37
0001e0 7c 15 ac 01 d9 bb f9 01 7a 19 52 01 15 7f 43 82
       6.321365e-38 9.17377e-38 3.8589187e-38 -1.4362808e-37
0001f0 41 ee 04 83 7a 83 15 03 fc 52 df 01 c4 ec 08 83
       -3.9064816e-37 4.3938092e-37 8.203634e-38 -4.02386e-37
000200 35 78 36 83 b8 a0 52 01 67 90 20 83 b6 72 10 83
       -5.3622984e-37 3.8686218e-38 -4.718554e-37 -4.244948e-37
000210 3c c3 81 02 21 64 e8 81 52 a1 61 82 a2 40 3e 82
       1.9066905e-37 -8.536702e-38 -1.6576686e-37 -1.3977544e-37
000220 28 ad f4 80 a6 1e 6e 02 1c c8 4a 03 39 bb d5 02
       -2.2469978e-38 1.7494274e-37 5.959218e-37 3.1404998e-37
000230 d4 24 3e 03 70 a1 17 83 f1 b3 5d 83 e7 c1 3d 03
       5.587826e-37 -4.4560233e-37 -6.5152625e-37 5.5764697e-37
000240 ef ba 5c 03 48 bb 1b 03 a8 40 e9 02 0d ac 33 83
       6.486678e-37 4.5765394e-37 3.4273384e-37 -5.2800877e-37
000250 5d cd 19 03 dc 51 7e 02 28 d8 19 82 e7 27 9e 01
       4.5198404e-37 1.8684465e-37 -1.1302699e-37 5.809729e-38
000260 b5 17 d1 02 28 ef 02 03 21 ec 43 83 46 36 47 81
       3.0723397e-37 3.8478104e-37 -5.7576412e-37 -3.6589467e-38
000270 22 ad 09 03 26 b8 c0 82 cf 7c 40 03 2e 89 81 81
       4.045943e-37 -2.831756e-37 5.6567e-37 -4.758396e-38
000280 c3 f5 17 03 7c 2d 0a 83 88 7b 65 83 91 0a d1 82
       4.4657032e-37 -4.060677e-37 -6.743886e-37 -3.0715855e-37
000290 cd 8a 03 83 fa c9 f1 02 75 cf 3d 03 5a a0 4e 03
       -3.8656775e-37 3.5527696e-37 5.5780257e-37 6.0722034e-37
0002a0 fe 07 b3 02 ce a7 0a 82 a7 88 30 03 2c 91 5e 00
       2.6306273e-37 -1.0186796e-37 5.187862e-37 8.684614e-39
0002b0 cc ae 2d 83 ae 76 ce 02 02 c6 39 03 2a 99 c5 02
       -5.1040788e-37 3.0337098e-37 5.4593916e-37 2.903446e-37
0002c0 40 07 1f 83 5f 70 b8 81 b3 6d 2b 03 be 8c e0 81
       -4.6734223e-37 -6.775217e-38 5.037831e-37 -8.248656e-38
0002d0 b3 2d a7 82 b1 fa 18 02 ae 21 70 02 0a b8 4c 03
       -2.4564675e-37 1.1239141e-37 1.7642081e-37 6.016148e-37
0002e0 68 aa 0c 83 36 52 ad 81 2f 55 12 83 00 06 cd 01
       -4.133792e-37 -6.366813e-38 -4.300333e-37 7.5313716e-38
0002f0 ad 94 51 02 5b c6 3b 03 c3 e8 0b 83 6c 3f 3d 83
       1.5397563e-37 5.518206e-37 -4.1115626e-37 -5.5614913e-37
000300 11 93 46 03 d5 79 af 81 94 3e 13 03 0a f9 67 83
       5.8355794e-37 -6.445967e-38 4.3271254e-37 -6.817068e-37
000310 ba 5b f9 82 1a a8 db 02 3a 0e a1 81 bc 37 12 82
       -3.663991e-37 3.2275643e-37 -5.9162474e-38 -1.0742381e-37
000320 04 12 57 02 1d 00 80 02 26 ee 55 83 58 ba 36 03
       1.5800876e-37 1.8807975e-37 -6.2868455e-37 5.3698905e-37
000330 a2 53 ed 02 89 20 6d 03 c0 0f 09 00 a5 d4 2b 03
       3.4872023e-37 6.968539e-37 8.3217e-40 5.0496487e-37
000340 27 c0 5d 82 97 d6 be 82 e3 49 32 03 5a d4 1c 82
       -1.6291661e-37 -2.804116e-37 5.2394316e-37 -1.1522012e-37
000350 bb be 0b 83 18 e4 c5 82 b0 d9 da 02 48 bd 5b 00
       -4.1067377e-37 -2.9077468e-37 3.2157168e-37 8.424931e-39
000360 29 b1 47 02 b4 24 47 01 2e 83 94 81 66 a8 38 02
       1.4671053e-37 3.657686e-38 -5.455485e-38 1.3566513e-37
000370 4e f2 37 03 7b 18 b7 82 aa 23 ef 82 c2 ab 26 02
       5.405702e-37 -2.6903484e-37 -3.5138364e-37 1.2245046e-37
000380 ec 9f 56 81 ea e9 fb 82 93 d3 01 03 d4 8d a8 01
       -3.942033e-38 -3.7015395e-37 3.815257e-37 6.1916967e-38
000390 c7 88 4e 83 fc b5 a7 02 3c 7f 50 80 e0 4f dc 02
       -6.069497e-37 2.4642898e-37 -7.392483e-39 3.237194e-37
0003a0 27 44 ae 81 3e df 49 83 21 11 24 83 82 bf a3 02
       -6.40153e-38 -5.932486e-37 -4.821493e-37 2.4060617e-37
0003b0 1c ef 42 00 87 70 99 82 2e ab 29 83 ec e2 f5 82
       6.146919e-39 -2.2545917e-37 -4.986114e-37 -3.6129761e-37
0003c0 0c 2d 80 02 e9 68 ef 81 9d 1c 79 02 15 12 10 02
       1.8833765e-37 -8.7945273e-38 1.8301842e-37 1.0584638e-37
0003d0 29 fb 11 83 7c 53 fb 02 56 be 57 01 cb 70 19 03
       -4.289999e-37 3.6929053e-37 3.9625823e-38 4.509214e-37
0003e0 42 f1 6a 01 8c 07 18 03 99 4f b5 02 cd ba 23 03
       4.3152106e-38 4.467745e-37 2.6641247e-37 4.811583e-37
0003f0 94 51 87 02 9a 06 50 02 f6 e4 0d 03 c8 4f 18 81
       1.988329e-37 1.5283321e-37 4.169901e-37 -2.797523e-38

lstm.bias_ih_l0 f4 [256]
000000 c8 00 20 3d a7 8c 6f 3d 97 da 0a 3e 5f 22 2c 3e
       0.039063245 0.058483746 0.13559948 0.16809987
000010 32 9b 84 ba 87 cf 6f bd 08 60 05 3e 12 72 c7 bc
       -0.0010117053 -0.058547523 0.13024914 -0.024346385
000020 5d 90 8a 3d f6 cb d1 3d 6b 9a d5 bc 5b 4e e2 3d
       0.06765816 0.102439806 -0.026074609 0.11050101
000030 2c 02 b2 3d 0f b8 20 3e 5f e2 ca 3d 50 50 22 3d
       0.086918205 0.15695213 0.09906458 0.039627373
000040 2c 09 fd bc 92 8e e2 3d e6 2f f8 3a c2 ff 23 3c
       -0.030888163 0.110623494 0.0018935173 0.010009708
000050 90 5a b4 3b 2e 70 ea 3d f1 c6 6b 3d 07 e7 0c 3e
       0.00550396 0.11447178 0.057562772 0.13760005
000060 e1 41 db 3d 1e d6 93 3d aa 0d 7e 3d d2 37 21 bd
       0.10705925 0.07218574 0.06202475 -0.039359875
000070 fc ed 01 3e 1e 0b 31 3d 35 2a 9d 3a 3f be b2 3c
       0.1268844 0.043223493 0.0011990728 0.021819232
000080 46 b6 7f 3d c9 36 cb 3d 5d 3f 4b bd 0f a5 36 bd
       0.06242969 0.09922559 -0.049620975 -0.044591006
000090 5e eb e1 3c a4 b8 d1 bb 4b 67 c9 3c 46 2d 8d 3c
       0.027578052 -0.0064001847 0.024585387 0.017233502
0000a0 30 8b f0 3d 7f 27 cf 3d 7f ce 03 3e 0f 1d 81 bc
       0.11745298 0.10114955 0.12871741 -0.015760927
0000b0 c4 de c7 3d 51 a7 72 bc 33 63 f9 3c b2 1f 83 3b
       0.09759286 -0.014810399 0.03044281 0.004001581
0000c0 c6 fe db bb b9 0c 29 3c 30 5b 97 3d 50 c9 38 bd
       -0.006713721 0.010317975 0.073904395 -0.04511386
0000d0 71 fa 3c 3d 9c 5a f9 3d 24 6a 76 3b 85 45 41 3d
       0.046137277 0.121754855 0.0037599886 0.04718544
0000e0 78 98 e7 3c 15 fc f7 3d 32 bf eb bc 5e 1a 7c bb
       0.028270945 0.12108628 -0.028777692 -0.0038467865
0000f0 6b fe c5 3d 0a 08 ae 3d dd 4a 40 3c 9e d5 59 bd
       0.09667667 0.08497627 0.011736599 -0.053182237
000100 6e bb 4e 02 e5 9d 16 83 44 2b be 82 4c 6c 8f 01
       1.518828e-37 -4.426229e-37 -2.7942824e-37 5.26853e-38
000110 9a 9a d1 82 5e 8f 34 81 85 12 58 82 e8 61 d6 80
       -3.0798527e-37 -3.316364e-38 -1.5874489e-37 -1.9687918e-38
000120 d6 8a c7 82 9c 0c 85 02 9a 07 d1 82 2f 47 b8 82
       -2.932011e-37 1.954983e-37 -3.0714153e-37 -2.7077227e-37
000130 68 2a 13 83 03 4d 34 03 6f 80 57 02 e9 f9 aa 02
       -4.3248097e-37 5.298565e-37 1.5832564e-37 2.5122696e-37
000140 99 59 40 83 40 72 d7 02 5c f8 e5 82 86 c4 24 03
       -5.652658e-37 3.1656987e-37 -3.3791077e-37 4.8420866e-37
000150 a6 eb a5 01 bc 0b 0c 03 32 e2 95 82 a4 e6 12 83
       6.0949566e-38 4.1155773e-37 -2.2023412e-37 -4.3170306e-37
000160 ca c8 30 82 7a 27 8a 82 71 b0 3b 83 7e 2e 8c 02
       -1.2988061e-37 -2.0299936e-37 -5.5156906e-37 2.0597836e-37
000170 36 66 82 82 04 41 df 82 11 a7 06 02 e4 01 55 03
       -1.916045e-37 -3.2804222e-37 9.892711e-38 6.2597245e-37
000180 d1 d7 2a 03 38 cb 70 00 be cd 1d 03 e1 2a 4c 83
       5.0206255e-37 1.0358477e-38 4.6374334e-37 -5.9999434e-37
000190 65 9b 00 82 ed b0 0c 02 4b cb 69 02 41 b6 36 03
       -9.448551e-38 1.0336351e-37 1.7176479e-37 5.369421e-37
0001a0 c8 8c 5a 03 5d 8c ba 01 25 5d 03 02 ef 6d d2 01
       6.422605e-37 6.852702e-38 9.651091e-38 7.7299564e-38
0001b0 44 66 95 02 a6 dd 4c 83 00 90 b0 02 34 3e f2 00
       2.195228e-37 -6.020465e-37 2.5943528e-37 2.2246504e-38
0001c0 d7 9f 1c 82 a5 86 7a 82 f9 2d d6 82 90 c6 80 81
       -1.1506942e-37 -1.840574e-37 -3.147086e-37 -4.73047e-38
0001d0 c4 54 16 83 50 5e ba 82 f4 84 ae 02 25 42 41 83
       -4.4178344e-37 -2.7384376e-37 2.5643313e-37 -5.6793533e-37
0001e0 63 76 05 03 80 cd e7 01 ad b0 b1 02 b6 de f3 02
       3.922109e-37 8.5150876e-38 2.610922e-37 3.583347e-37
0001f0 1b 18 ca 82 fd e1 ff 82 b3 17 e5 01 d4 52 1f 03
       -2.9695068e-37 -3.7598593e-37 8.415532e-38 4.6820982e-37
000200 cf 75 e4 3d ef e2 31 be 62 83 09 3e 07 d9 3b be
       0.11155283 -0.17371725 0.13429025 -0.18344508
000210 66 37 2d 3e 17 1d b6 bd cd ad b9 3c 94 59 04 3d
       0.16915664 -0.08892267 0.022665882 0.03231199
000220 a7 c8 24 be 52 fd 2f 3e a5 5f e4 bd ca 55 00 3e
       -0.16092168 0.17186478 -0.11151055 0.12532726
000230 9a e1 3b be 5f 10 25 bd 08 d7 1e 3e 34 a3 8a bd
       -0.18347779 -0.040298816 0.15511715 -0.0676941
000240 ef c8 04 be e7 1d 1a bd ce f0 61 bd f8 c4 0f be
       -0.12967275 -0.037626173 -0.05516129 -0.14039981
000250 ec 39 3a bd 8f 95 88 3b 78 68 f7 3c 13 88 cf 3b
       -0.045465395 0.0041682194 0.030201182 0.00633336
000260 1f 43 36 3e 1c 2d 0b 3e 52 95 20 bc c7 4c 25 bc
       0.17799042 0.13591427 -0.009801226 -0.010089106
000270 8a ce 11 3d 66 5d 06 3d 33 fa 54 3c 24 04 96 bd
       0.03559736 0.032803915 0.012999105 -0.073250085
000280 14 b8 98 bc e4 fa f0 3c 43 2f 50 3c f8 4d a6 3d
       -0.018642463 0.029416509 0.012706581 0.0812034
000290 0e 43 3b be eb 9a 86 bc bc b4 25 bd af 01 b9 3d
       -0.18287298 -0.016431293 -0.040455565 0.09033524
0002a0 39 10 42 be ab b7 14 3e 48 e2 ed bd f3 49 0c 3e
       -0.18951501 0.14523189 -0.11615425 0.13700084
0002b0 50 ea b5 3c 6a 7d 9d bd 0f 50 18 3c e0 24 37 be
       0.022206455 -0.076899365 0.009296431 -0.1788516
0002c0 4c 8c b6 3d fe 66 68 3d 6f 04 02 bd 0a f7 4d 3d
       0.08913478 0.056738846 -0.03174251 0.050284423
0002d0 d4 b7 c0 bd bf 2c 65 3d 97 9b 1e bd 89 76 73 3b
       -0.094100624 0.055950876 -0.0387226 0.003714951
0002e0 f6 6f 0f 3e 8c a4 80 bd dc ed 31 3e 5d f8 38 be
       0.14007553 -0.06281385 0.17375892 -0.18063493
0002f0 b2 cf 38 be 6e 20 14 3e cc 57 91 bd 07 bb 71 bd
       -0.1804798 0.14465496 -0.07096824 -0.059016254
000300 e7 37 4f bd 21 46 3e 3c f2 e0 8f 3b bb b8 37 3b
       -0.050590422 0.0116134 0.0043908292 0.0028033692
000310 df c8 ad 3c fc f9 ea 3d ee 55 98 3b 00 86 1d bb
       0.021213947 0.11473462 0.0046489155 -0.002403617
000320 13 97 1a bd a4 c5 fe 3c a1 2d 17 3e b8 26 d6 3d
       -0.03774173 0.031100102 0.147635 0.10456604
000330 37 c6 fc 3d 2e 16 87 bc c8 51 e0 3d 9e 28 a2 3d
       0.12342494 -0.016490068 0.109530985 0.07917903
000340 fa 97 30 3c 9c ad 86 3d 73 f9 07 3d f8 84 c9 3d
       0.010778422 0.06576082 0.033196878 0.09839815
000350 ff 07 d1 3c d2 64 1c 3d 25 74 28 bb c9 62 24 3e
       0.025516508 0.038182087 -0.0025703993 0.16053309
000360 67 62 49 3b c6 34 66 bd d9 7b 6e 3d 24 10 b2 3d
       0.0030728818 -0.056202672 0.05822358 0.08694485
000370 33 4d f4 3d 5f 75 dc 3b f3 a2 4c bd bb cc df 3a
       0.11928787 0.006727859 -0.049960088 0.0017074564
000380 59 05 86 3d ff 32 d2 3d 0d e8 f9 3c f7 77 ea 3d
       0.06543989 0.10263633 0.030506158 0.11448663
000390 77 08 c8 3c 02 ab 08 bd 33 48 e2 3d 8a 69 a3 3d
       0.024418099 -0.03336621 0.11048927 0.07979114
0003a0 8c 65 4a bd 24 29 17 3d 50 f8 5a 3c 80 39 23 bd
       -0.04941325 0.03690447 0.013364866 -0.03984976
0003b0 31 fd fc 3c 1e fe 88 bc 11 6c 0e 3c 9c 37 56 bd
       0.03088245 -0.016722735 0.008692757 -0.052299127
0003c0 b6 78 84 3c 71 4b be bc 18 d7 01 3c 22 c7 b3 3d
       0.01617084 -0.023229333 0.0079248175 0.08778216
0003d0 8e c3 09 3c 05 b6 00 3e 18 d4 d6 3d 9a 49 24 3b
       0.00840844 0.12569435 0.104896724 0.0025068284
0003e0 ae 35 17 bd 3a 2b ea 3d b6 1e 3e 3c b5 2f ad 3d
       -0.036916427 0.11434026 0.011604002 0.08456365
0003f0 1c cd b2 bc 01 0b 67 bb fd 56 c1 3c 0a af 9a 3d
       -0.02182632 -0.0035254362 0.02360105 0.07552917

lstm.bias_hh_l0 f4 [256]
000000 86 25 0e bd 0a 87 fc 3d a2 c9 12 3d 80 fe 06 bd
       -0.034703754 0.12330444 0.035836823 -0.032957554
000010 24 5e ba 3d 82 65 8d bd 0e 6c 58 3d e9 b4 a7 3d
       0.09099987 -0.06904127 0.052837424 0.08188803
000020 a5 ad 31 bd ee 41 c1 3d ad 17 e5 bc 93 94 d7 3c
       -0.04337849 0.09436403 -0.027965391 0.026315963
000030 f1 2e 92 3d f4 87 c7 3c f5 20 6c bd 37 fb 00 3e
       0.071378596 0.02435682 -0.057648618 0.12595831
000040 d6 ea 48 bc a6 51 e0 3d fa 14 f5 3d 57 e1 5f 3d
       -0.0122630205 0.10953073 0.119668916 0.05465826
000050 17 d2 b2 bc e3 94 50 3d 0e 32 d2 3d 1d d1 e6 3d
       -0.021828694 0.05092324 0.102634534 0.11270354
000060 24 2d eb 3d 17 56 b8 3d 04 4f 75 3d c7 be 57 bd
       0.11483219 0.09000795 0.05988981 -0.052672174
000070 17 25 ed 3d d9 90 5c bd 09 c3 1e 3b 76 87 4f 3d
       0.1157934 -0.053849075 0.0024225137 0.050666295
000080 97 92 9b 3d 91 e2 23 3e ff 93 42 bd 13 d3 0b 3e
       0.07596319 0.16004397 -0.04750442 0.13654737
000090 28 e6 30 3e 80 97 c3 3c 2f 8a 45 3d 86 19 1d 3e
       0.17275298 0.023875952 0.048227485 0.15341768
0000a0 27 8b 3a bd 96 9e 39 3c 83 fb a6 3d a4 4a 68 bd
       -0.045542862 0.011329314 0.08153441 -0.056711808
0000b0 ae 5f 85 3c 9e 22 1d 3e 96 b6 24 bc 4c e9 3d 3d
       0.016280975 0.15345237 -0.0100532975 0.046365067
0000c0 57 89 1f 3e 2d 9f 80 3d ee 3d 0e 3e 53 6c 70 bc
       0.15579735 0.0628036 0.13890812 -0.014674264
0000d0 3d dc 9c bc 83 a5 e5 3d 36 f5 e1 3a a9 a4 c9 3d
       -0.019147987 0.112132095 0.0017239216 0.098458596
0000e0 cb 8e e6 3c ed 3c bc 3d 6d 49 3d bd 07 17 e7 3d
       0.02814426 0.09191308 -0.046212602 0.11283689
0000f0 5d 12 f8 3c 21 61 3d 3d dc f2 e7 3d b7 68 a5 3d
       0.030282194 0.046235207 0.113256186 0.080766134
000100 fb c6 9c 82 00 2e 81 02 7a 0d 26 03 57 53 57 83
       -2.303635e-37 1.898125e-37 4.8798486e-37 -6.327849e-37
000110 54 fc f7 01 98 a8 9c 00 0f 00 0b 83 aa 7e 01 82
       9.1095543e-38 1.4386817e-38 -4.0848496e-37 -9.513774e-38
000120 70 cb 4b 83 5a 0f 3d 03 70 44 1c 83 e1 88 5a 03
       -5.9889873e-37 5.555973e-37 -4.592284e-37 6.422157e-37
000130 fa 26 b3 02 2c c4 20 82 03 1d 6f 83 f2 8e cf 82
       2.6324058e-37 -1.1811242e-37 -7.026909e-37 -3.0497963e-37
000140 f2 7b ee 02 57 6c 7b 82 2c 8f 3d 83 b0 a9 4e 83
       3.5042098e-37 -1.847166e-37 -5.570646e-37 -6.073275e-37
000150 0c 0c 6f 02 0a b0 56 83 b2 da 9d 82 08 18 70 80
       1.7562404e-37 -6.309103e-37 -2.3194602e-37 -1.0294196e-38
000160 58 7d 5c 83 6c 77 df 02 54 30 79 82 7a bb 16 83
       -6.4796077e-37 3.283545e-37 -1.83075e-37 -4.429625e-37
000170 ae e5 89 02 38 09 3f 03 1c 70 5d 82 95 60 5a 02
       2.026217e-37 5.614044e-37 -1.626869e-37 1.6043828e-37
000180 53 21 a1 82 4c 8c 96 02 5e e6 be 02 08 28 5b 82
       -2.367595e-37 2.2121046e-37 2.8050215e-37 -1.6101067e-37
000190 c2 55 73 82 88 30 ca 02 a5 3f 25 02 bc b4 7d 00
       -1.7877432e-37 2.9709088e-37 1.2140551e-37 1.1544272e-38
0001a0 f8 6d 27 83 9b f4 1a 02 49 38 7b 02 f1 bc 4d 83
       -4.9203127e-37 1.1384331e-37 1.8456721e-37 -6.046098e-37
0001b0 58 df d2 80 74 b6 49 83 60 d5 e3 02 b7 0c 29 03
       -1.9365575e-38 -5.9278037e-37 3.3477123e-37 4.9679232e-37
0001c0 d4 a6 3b 03 00 81 da 80 e8 67 20 01 a8 8e 51 02
       5.514587e-37 -2.0066415e-38 2.9461908e-38 1.5395835e-37
0001d0 5e 09 41 82 01 53 6b 83 ee e9 84 02 32 48 23 81
       -1.4182089e-37 -6.9155577e-37 1.9529926e-37 -2.999017e-38
0001e0 08 1d 54 83 66 e0 cb 81 2d 98 32 82 82 b5 ea 02
       -6.2334527e-37 -7.489242e-38 -1.3121047e-37 3.448739e-37
0001f0 50 93 be 81 7e 0f 92 02 f0 79 2b 02 96 9b df 82
       -7.000636e-38 2.1461664e-37 1.259809e-37 -3.2856207e-37
000200 fd fd 06 3d e2 e8 09 be 67 d3 d9 3d 25 2e 1b 3d
       0.032957066 -0.13467744 0.10636025 0.037885804
000210 28 cd 1f bd 5e 4d d8 bd b3 ac 63 3d b1 8d 08 3d
       -0.03901401 -0.105616316 0.05558462 0.033338252
000220 25 3a 20 3d ec 12 88 3c 38 87 00 3c ef d2 bc 3d
       0.03911795 0.016610585 0.007844739 0.0921992
000230 95 05 00 be fd de 8e 3d ae 5f 1e 3d 10 c5 1e be
       -0.1250213 0.069761254 0.038665466 -0.15504861
000240 83 67 0d be d3 c6 20 be 9c 45 1c be 82 fb f8 bd
       -0.13809018 -0.15700845 -0.15260929 -0.12157346
000250 ad ba 26 be 42 02 6d bd be a6 03 be d4 30 05 be
       -0.16282149 -0.05786348 -0.12856576 -0.13006908
000260 bc 3f 0e 3e 62 fd c1 3d 36 b7 d9 bd 95 1d 39 3e
       0.138915 0.09472157 -0.10630648 0.18077691
000270 d2 6e d6 bc 8e 95 2a bd 5f 2e 64 3d 81 3d b9 bd
       -0.02617589 -0.041646533 0.055708285 -0.09044934
000280 51 37 11 be b3 de 1c be 38 06 56 bc 2e 64 56 3d
       -0.14181258 -0.15319328 -0.013063006 0.052341633
000290 5f 15 3c be 77 cd be bd 58 15 8c 3c 40 f5 0d 3e
       -0.18367527 -0.09316533 0.017100021 0.13863087
0002a0 55 6d f5 bb 1e dd 30 3e e3 2e 0b be e3 4e 68 bd
       -0.00748984 0.1727185 -0.13592105 -0.056715857
0002b0 79 43 2e 3e a5 23 37 be 6c 3f 3e 3e 59 ad a9 bb
       0.17017926 -0.17884691 0.18578881 -0.0051781354
0002c0 da 18 9c 3d eb fa 11 3e db 3d f7 bd e7 c1 56 3c
       0.076219276 0.14255874 -0.12072345 0.013107753
0002d0 d5 b9 61 bd d9 a1 b2 3d d4 a5 2a be 90 92 39 3e
       -0.055108864 0.08722276 -0.16664821 0.18122315
0002e0 68 fc 23 3e 89 b6 ab bc ed cc dc 3d e4 f8 1e be
       0.16014254 -0.020961063 0.10781274 -0.15524632
0002f0 a9 77 86 bd 83 d7 11 3e 7c 8f 18 be 3a 23 57 bd
       -0.06565792 0.14242367 -0.14898485 -0.05252383
000300 6b d2 0c 3b 23 f0 ca bc 98 14 af 3d ea 37 f9 3d
       0.0021487724 -0.02477271 0.0854885 0.12168868
000310 7f ef 15 3e cf 6a db bc 78 ca 83 3d 57 c2 08 bc
       0.14642142 -0.026784329 0.06435102 -0.0083471155
000320 c8 32 85 3d cd 33 56 3d 21 01 49 3c 10 4d 62 3d
       0.065038264 0.052295495 0.012268336 0.055249274
000330 d6 42 0a 3e a6 d5 c4 bc f1 b1 e6 3d 6f 3e 9c 3b
       0.13502058 -0.024027657 0.112644084 0.004768185
000340 d4 c2 1a 3e a0 cd c1 3c bf eb ad bb 74 dd 4a 3d
       0.15113384 0.02365762 -0.005307644 0.0495276
000350 03 cf 62 bd 66 67 25 3e ca 97 65 3d a4 67 36 3d
       -0.055373203 0.16152725 0.05605296 0.044532433
000360 80 2d a6 3d 76 f5 0a 3e 0a 01 72 3d 7e a2 0a bb
       0.08114147 0.13570198 0.059083022 -0.0021153982
000370 f4 c3 13 3c 2b 2c 1f 3e 42 b6 92 3d 52 34 13 3d
       0.009018887 0.15544192 0.07163669 0.03593857
000380 68 73 57 3d 07 f8 c6 3c 9a c6 42 3d 60 b0 db 3d
       0.052600294 0.02428819 0.047552682 0.10727
000390 8a cb 16 3e 13 2c 15 3d ab 40 b1 3c b9 6e ef 3d
       0.14726081 0.036418986 0.021637281 0.116910405
0003a0 3a dc 8f 3d 05 27 2b 3d 8f db 3f bc f9 33 d9 3d
       0.07024427 0.04178526 -0.011710062 0.10605616
0003b0 7c 01 16 3e 89 f2 69 bd 5a eb 02 3c 7b 4d 34 bd
       0.14649004 -0.057116065 0.0079906825 -0.044019204
0003c0 c4 ed af 3b ad eb f0 3d 76 db 48 bc 5c bd 37 bd
       0.00536892 0.117637016 -0.012259355 -0.04485832
0003d0 91 b2 41 bc 26 81 d6 3d a5 f8 06 3e 6f 50 97 3c
       -0.011822359 0.10473852 0.13180788 0.01847097
0003e0 db f0 e2 3d b4 72 0f bc f6 65 2c bc 8d 0b df bb
       0.11081096 -0.008755375 -0.010522356 -0.006806797
0003f0 d5 35 8a bc 96 16 23 3e ca 2b f7 3d 81 d6 c2 3d
       -0.016871372 0.15926585 0.12068899 0.095135696

lstm.weight_ih_l1 f4 [256, 64]
000000 4e cc cb 3d ea 22 63 3d ab 49 40 3d 6a 21 98 bd
       0.099510774 0.05545322 0.046945255 -0.07428248
000010 e2 cc 9c 3c ba 96 51 3c 8f 72 8a 3c 4e 46 57 3c
       0.019140664 0.012792284 0.016900329 0.013139321
000020 14 95 c0 3c 71 47 a6 3d 54 9a 70 3c 47 6c f3 3d
       0.023508586 0.08119095 0.014685232 0.11885887
000030 23 e4 8f 3d 0c 38 8a bd b0 37 f0 3d ab 98 d5 bd
       0.070259355 -0.06748971 0.117293715 -0.1042951
000040 88 70 6c bd fb 15 f6 bd a4 26 30 3d 39 88 b2 3b
       -0.057724506 -0.12015911 0.0430056 0.005448368
000050 63 29 42 3d 09 2d 4e 3a 8a c3 83 3d 43 b4 af bc
       0.04740275 0.0007864987 0.064337805 -0.02144826
000060 aa f4 4e 3d f4 c7 5d 3b 9d 5d e5 bd 89 cb 7a bd
       0.0505263 0.0033841105 -0.11199496 -0.061229263
000070 b8 dc a2 bd a1 37 b4 bc 8f 3d 86 3d 2f 74 f4 bb
       -0.07952255 -0.021999182 0.0655471 -0.007460139
000080 7d 0d a3 bd 90 ab 41 bd 47 2c f0 bc ac 2f 3a 3d
       -0.07961557 -0.047282755 -0.029317988 0.04545562
000090 68 4a 24 bd 1b e4 98 bc 39 8f 1a bb e5 a9 f5 3d
       -0.04011002 -0.018663457 -0.0023583903 0.119952954
0000a0 dc 35 c6 bd 97 c9 58 bb c4 cd f8 3a 76 f4 9e bc
       -0.096782416 -0.0033079141 0.0018982221 -0.019403677
0000b0 ad 13 b5 3c a2 50 e3 bd 4c f5 3f 3d 78 e4 7f bd
       0.022104109 -0.11099364 0.046864793 -0.062473744
0000c0 0e 79 d2 bb 2e 55 06 bd 59 19 d2 bc 9a df e2 3c
       -0.0064231222 -0.032796077 -0.025646852 0.027694512
0000d0 15 de 33 bb d8 2c c8 3d 30 82 92 bd 41 2a 0d bd
       -0.0027445604 0.09774178 -0.071537375 -0.034464125
0000e0 06 0b 30 3d 48 96 e4 3c df e5 ff bb 98 78 44 bd
       0.042979263 0.027903691 -0.007809385 -0.04796657
0000f0 45 76 04 bd f3 9f 7f 3d c2 2d be bc 8c 93 d4 bc
       -0.032339353 0.0624084 -0.023215178 -0.025949262
000100 f7 6d 6b 3c fc c7 04 bd dc 11 02 3d 03 00 1e bc
       0.014369479 -0.032417282 0.031755313 -0.0096435575
000110 26 9e b7 3c 39 ee c3 bd 0d 44 94 bd 5c e3 ee bc
       0.022414278 -0.09566922 -0.07239542 -0.029161148
000120 5d fb c5 3b 34 ec c9 3d 79 53 2f bc cc 68 29 3d
       0.0060419277 0.09859505 -0.010701054 0.041359708
000130 50 04 7c bd 84 fe 96 3d 7b e2 8c bc 0f 31 98 bd
       -0.06152755 0.07372764 -0.017197838 -0.07431232
000140 17 42 98 3d fc 70 9b 3a 6c c3 5c 3d 03 d7 18 bd
       0.07434481 0.0011859233 0.053897306 -0.037314426
000150 ab 98 f3 bb 59 bb b3 3c e8 6a 64 bd 00 3c 85 3c
       -0.007433971 0.02193992 -0.055766016 0.016263962
000160 35 22 9b 3d f1 6d 0e 3d c0 15 7a 3d 38 8b a6 3c
       0.07574884 0.034772817 0.0610559 0.020330057
000170 b2 32 2e 3d 0a b6 8b 3d fe 06 28 3c cb 35 02 3d
       0.042528816 0.068218306 0.010255573 0.031789582
000180 3a 19 10 b9 81 ef a5 3d 09 c2 c6 3b 34 5e a6 bd
       -0.00013742308 0.08102322 0.0060656113 -0.081234366
000190 90 c0 9d bc 92 74 5a ba 29 6d 59 bd 2a e4 d2 bc
       -0.01925686 -0.00083334104 -0.05308262 -0.025743563
0001a0 3e 72 b5 bd a1 7b 4f 3c 06 aa 1d 3d 60 8a 4e bb
       -0.088596806 0.012663753 0.038492225 -0.0031515583
0001b0 37 ee a4 3d 73 08 0e bd 45 bc 8a b9 3d ad 5f bd
       0.080532484 -0.034676027 -0.00026461683 -0.054608572
0001c0 39 ed 97 3a ed 1a 22 3d e8 02 83 bc 0a b3 36 bd
       0.0011591084 0.03957646 -0.015992597 -0.04460434
0001d0 b2 76 b9 bd 70 8f 90 3c 9a 59 68 3d e3 77 3f 3d
       -0.090558425 0.017646521 0.056726076 0.046745192
0001e0 b7 99 50 3d 47 2c 96 bd 0b 3b a8 3d 76 5e 8f 3d
       0.050927844 -0.07332664 0.082143866 0.07000439
0001f0 c9 3e 25 3c c9 43 df 3d 1b cb 2c 3d 3d e9 a9 bc
       0.01008577 0.10901601 0.042185884 -0.0207411
000200 f3 dc 0e bd 3d b4 22 bd 44 24 8d 3c 07 c9 3f 3c
       -0.034878682 -0.03972267 0.017229207 0.0117056435
000210 74 e8 94 bd 32 c2 34 bd 3f 11 0f 3d e4 85 2f 3d
       -0.072708994 -0.04413051 0.034928557 0.042852297
000220 19 e0 1b 3d 1c 54 7d bd e2 aa f0 3c f4 68 35 3c
       0.038055513 -0.06184779 0.029378358 0.011072386
000230 e2 7b 22 bd 66 d4 20 bc c8 1b 15 3d 40 c2 8a 3d
       -0.039668925 -0.009816265 0.036403447 0.067753315
000240 f9 36 00 bc 92 88 d2 3c 65 ca 34 3d e8 4c 80 bc
       -0.0078256065 0.025699887 0.04413833 -0.015661672
000250 c4 48 6f bc 04 e6 de 3d 93 c0 60 3d 1d 62 37 3d
       -0.014604751 0.10883716 0.054871153 0.044771302
000260 ba 26 27 3d 56 44 b2 bc c2 1f 1b ba 8a af 66 3c
       0.040808417 -0.0217611 -0.0005917513 0.014079938
000270 d9 5d c8 bc 80 97 a2 bb e9 27 6d bd 24 09 75 3c
       -0.024458813 -0.004961908 -0.05789939 0.014955793
000280 38 32 81 3c 09 f1 9b 3d ea b3 a4 3c 62 46 72 bc
       0.015771016 0.07614333 0.020105321 -0.014787288
000290 9a 6b 8e bc 45 5b 03 bc 32 c7 25 bb f7 b5 39 bd
       -0.017385293 -0.008017366 -0.0025295732 -0.04533955
0002a0 7d 80 ec bc 9d 69 a4 3c cf e6 52 bd 25 ae d9 bb
       -0.028869862 0.020069892 -0.051489647 -0.006643074
0002b0 32 17 bb 3b d9 ec 53 bc 1f 6a fe bc 3a 21 90 3d
       0.005709552 -0.012934887 -0.031056462 0.070375875
0002c0 d1 77 b1 3b d7 db 60 bd 5d b6 a6 ba 57 88 72 3d
       0.0054158946 -0.054897156 -0.0012719143 0.059212055
0002d0 b9 80 b5 bc 89 74 4a bc 96 78 5f bd ba 7f ad bc
       -0.022156106 -0.012356886 -0.05455836 -0.021179069
0002e0 52 03 50 bd 04 ac c3 3c 24 9f 36 bd bf 52 b6 bb
       -0.050784416 0.023885734 -0.044585362 -0.0055640633
0002f0 4a 72 e9 bc c2 55 a7 bd f6 84 a3 3d 77 01 38 3d
       -0.02849688 -0.08170654 0.07984345 0.044923272
000300 a4 f9 b5 bc f4 29 dd 3b 06 03 ad 3c 06 50 de 3c
       -0.022213764 0.006749386 0.021119606 0.027137768
000310 e8 33 49 bd 2b 72 8e bc 25 73 21 bd 46 17 dc bc
       -0.049121767 -0.017388424 -0.03941645 -0.026866566
000320 01 5d f3 3c 3a 17 2a bd 77 00 13 3d d6 c3 af 3d
       0.029707434 -0.041526057 0.035889115 0.085822746
000330 87 4a 37 3d cc 54 c1 bb 4c a6 09 bd ee 45 b0 bd
       0.04474881 -0.005900001 -0.03360586 -0.08607088
000340 cd 37 5d bd dd 0a af bc dc 5d f3 3c 69 1f 5d bd
       -0.054008294 -0.021367485 0.029707842 -0.053985033
000350 c2 e0 13 bd cd 64 12 3b 9e 36 44 3d 43 40 3f bc
       -0.036103018 0.0022337914 0.04790365 -0.011673036
000360 e6 0e f9 bc a1 52 d8 3c 9e e1 92 bc 8f 6a ee bc
       -0.030402612 0.026406588 -0.017929848 -0.029103545
000370 07 53 0c 3d 84 70 5d 3d b6 4e 16 3d ae 5b a4 bc
       0.03425887 0.05406238 0.03669616 -0.020063248
000380 82 df e8 bb 2d f8 13 3d 40 1a 1c bb 04 5f b7 3d
       -0.0071067223 0.03612535 -0.0023819357 0.0895367
000390 c8 ff 8d bd ed 6f 7a bc 12 94 98 bc 59 f8 27 bd
       -0.06933552 -0.015285474 -0.018625293 -0.041008327
0003a0 95 e5 30 3d 34 d3 18 bc b5 bf 1b ba 31 4f 4c 3d
       0.043187696 -0.0093276985 -0.00059413473 0.04988021
0003b0 30 29 30 bd 00 79 a4 bc ce fd 75 3d 3f df b8 bd
       -0.04300803 -0.020077229 0.0600565 -0.09026956
0003c0 a7 59 e1 3b bb 1e 12 bd 3e a3 88 bc 73 69 dc 3b
       0.0068771425 -0.035673838 -0.016679402 0.0067264377
0003d0 60 29 98 bc 36 f8 3a 3c bf b7 bc bd 12 6c c3 3d
       -0.018574417 0.011411717 -0.09214734 0.09542097
0003e0 1e a7 ff 3c fc 20 cd bb f4 83 aa 3d 6e 59 61 3b
       0.031207617 -0.0062600356 0.08325949 0.003438558
0003f0 e6 d2 a8 bd 41 5a 76 bd 4e 0a 93 3d 45 a6 a3 bd
       -0.08243351 -0.060144667 0.071797 -0.07990698

lstm.weight_hh_l1 f4 [256, 64]
000000 2f 9a 44 83 65 37 a1 82 0f af 92 82 8d 77 4e 02
       -5.7776217e-37 -2.3688619e-37 -2.155325e-37 1.5168799e-37
000010 24 dc 23 81 81 35 1c 02 e0 5f d0 80 06 46 d7 82
       -3.0096315e-38 1.1476425e-37 -1.9136177e-38 -3.1631602e-37
000020 ed b7 29 83 ef 11 75 02 e1 7d 9f 82 78 33 0c 82
       -4.9875773e-37 1.8004904e-37 -2.3435201e-37 -1.0300346e-37
000030 66 36 1e 03 0e 02 59 83 4c 45 4e 83 20 2e 4c 00
       4.6494473e-37 -6.3772927e-37 -6.061751e-37 6.996044e-39
000040 4c 44 54 82 fc e9 3a 83 43 f5 3d 02 ce 24 95 02
       -1.55949e-37 -5.492909e-37 1.3955914e-37 2.1914707e-37
000050 a8 dd e4 80 2e 14 e9 02 fc 03 5e 82 48 87 a0 82
       -2.1018008e-38 3.4247856e-37 -1.6311128e-37 -2.3587535e-37
000060 df bc 1a 03 2c 1b 9f 82 bb 10 da 02 19 63 4c 03
       4.5473346e-37 -2.3378546e-37 3.2041824e-37 6.006397e-37
000070 89 7e 69 02 f3 35 1d 83 7b e8 00 83 2f 09 1c 83
       1.715445e-37 -4.6200084e-37 -3.7882694e-37 -4.585482e-37
000080 b0 56 0e 02 43 f5 0c 83 c8 10 21 83 e4 ef ae 82
       1.045739e-37 -4.142385e-37 -4.733291e-37 -2.5704693e-37
000090 c6 2b 7f 01 f3 86 0a 02 da ac 0f 03 9c bf 26 02
       4.686751e-38 1.0177367e-37 4.2222347e-37 1.2250743e-37
0000a0 90 7c 42 02 9f 0d a3 02 bf 5f f3 01 d6 01 19 03
       1.4288617e-37 2.3958516e-37 8.940149e-38 4.4964766e-37
0000b0 ab ee b0 02 26 69 68 03 e0 18 aa 82 f2 b1 2b 03
       2.5997864e-37 6.8299377e-37 -2.4993533e-37 5.0456655e-37
0000c0 24 90 27 03 fe 23 9d 01 b2 0b 0d 01 c1 43 81 02
       4.9242354e-37 5.772434e-38 2.5906e-38 1.8993735e-37
0000d0 8e 91 be 02 dc a4 92 02 5d fc 20 03 55 a6 4d 83
       2.8001535e-37 2.1547397e-37 4.7309473e-37 -6.0435025e-37
0000e0 da f1 5d 82 de 61 b9 82 8c 80 64 83 ec e3 fd 82
       -1.6305924e-37 -2.723948e-37 -6.7150743e-37 -3.730583e-37
0000f0 0a de 87 02 95 bf 16 03 04 60 86 82 82 3b b5 81
       1.9963911e-37 4.4300964e-37 -1.974464e-37 -6.657429e-38
000100 c2 b4 27 03 ee 94 9c 82 ea 4d 61 83 f8 78 48 03
       4.928439e-37 -2.3007621e-37 -6.6211e-37 5.8913583e-37
000110 30 01 ae 82 95 ce 3c 03 d3 4a 56 82 3c 00 24 80
       -2.5567684e-37 5.548538e-37 -1.574371e-37 -3.306162e-39
000120 bc 4a 21 83 ea b6 3e 02 ac 74 29 83 6f 5c 2a 82
       -4.739944e-37 1.4011489e-37 -4.979857e-37 -1.2516155e-37
000130 98 21 19 01 ae 64 4c 82 b4 9b f4 02 b0 15 be 82
       2.8125764e-38 -1.5016447e-37 3.5941947e-37 -2.7930439e-37
000140 a8 c4 02 82 15 3e 23 03 be 63 b7 82 7f ea 7f 82
       -9.607329e-38 4.797266e-37 -2.6946682e-37 -1.8801738e-37
000150 a9 fb a7 82 55 61 b5 82 75 c0 5a 83 3c 90 83 01
       -2.468289e-37 -2.6651426e-37 -6.428537e-37 4.8328766e-38
000160 98 af 8f 82 28 e7 16 80 da 3a 0d 03 bc 47 fc 01
       -2.1112747e-37 -2.103304e-39 4.1503734e-37 9.2673114e-38
000170 18 6a 5b 83 36 a8 0d 03 f9 06 0c 83 76 fa 26 83
       -6.4480105e-37 4.1629273e-37 -4.1150306e-37 -4.907053e-37
000180 16 3a 48 82 78 2a ba 01 f2 16 8f 02 66 10 e7 82
       -1.4710349e-37 6.838655e-38 2.1025131e-37 -3.3951812e-37
000190 06 c6 61 82 4b 38 10 82 ab e7 1e 03 a8 db 03 03
       -1.6587219e-37 -1.0595604e-37 4.669797e-37 3.8749593e-37
0001a0 ad 54 10 03 1c df 7a 82 20 04 99 02 ec f4 1f 02
       4.2415e-37 -1.8431128e-37 2.2483697e-37 1.1751764e-37
0001b0 38 47 6c 83 24 8e 08 82 25 2f 22 83 9c 98 05 03
       -6.943592e-37 -1.0032494e-37 -4.766164e-37 3.9260374e-37
0001c0 e0 88 4a 80 64 83 f6 00 9a 24 94 82 a0 5c bd 81
       -6.844928e-39 2.2638666e-38 -2.1767654e-37 -6.9560545e-38
0001d0 ce de 44 03 dd c4 59 83 0a 03 8b 82 af 57 10 82
       5.785499e-37 -6.3996556e-37 -2.0425959e-37 -1.0604613e-37
0001e0 20 20 c5 00 a0 7b 00 83 19 d6 33 02 4e 83 cf 02
       1.8103117e-38 -3.7757734e-37 1.3212286e-37 3.0491282e-37
0001f0 4a b9 1a 03 57 a8 2b 03 c8 de a5 02 b5 e6 4a 02
       4.5469234e-37 5.044563e-37 2.4372441e-37 1.4906826e-37
000200 b5 cb fb 02 40 d1 79 01 83 55 4e 03 a4 f4 53 02
       3.6998057e-37 4.5884207e-38 6.063612e-37 1.557204e-37
000210 10 68 b2 81 f2 b7 19 83 02 27 1e 81 e0 28 63 83
       -6.5536196e-38 -4.517382e-37 -2.9048004e-38 -6.6756227e-37
000220 c4 23 29 03 4a a7 9f 02 da fe 47 81 c3 79 15 83
       4.9705693e-37 2.345897e-37 -3.6733374e-38 -4.392694e-37
000230 bb 44 b3 02 ac 09 f4 82 a2 e9 2a 83 4f 3e 4b 82
       2.6341135e-37 -3.585813e-37 -5.0226707e-37 -1.4931966e-37
000240 39 cd ab 82 58 0b 99 02 b9 cd c8 82 02 6e 0c 83
       -2.5243984e-37 2.248784e-37 -2.9505438e-37 -4.1268585e-37
000250 22 77 84 82 e6 20 8a 02 17 3f 3f 03 73 0e 89 02
       -1.9464036e-37 2.029616e-37 5.620228e-37 2.0138634e-37
000260 3c 52 5e 03 ac 60 63 02 ce fb 2d 03 c4 e5 58 83
       6.5334337e-37 1.670507e-37 5.112919e-37 -6.3740453e-37
000270 c1 f9 f2 02 0e 90 34 02 ab 3d 0d 83 23 22 a2 82
       3.5702056e-37 1.3265653e-37 -4.1506967e-37 -2.3823354e-37
000280 72 d0 fa 02 7d db 2a 82 60 03 fc 01 a2 0e c9 82
       3.685384e-37 -1.2552618e-37 9.2575023e-38 -2.9542694e-37
000290 1c 93 d6 81 9a 0c 0b 83 30 fe 92 02 59 ba 31 83
       -7.8822276e-38 -4.0862895e-37 2.1598668e-37 -5.222954e-37
0002a0 80 03 50 83 a6 ef e3 82 f7 21 21 02 6c 6a 72 02
       -6.1129724e-37 -3.3492204e-37 1.1838159e-37 1.7809894e-37
0002b0 c8 a3 57 82 68 1d 77 82 10 9a 59 00 c4 10 b5 00
       -1.5842708e-37 -1.8155133e-37 8.228626e-39 1.6628239e-38
0002c0 18 2b 3f 82 c4 a6 88 81 02 1a 39 82 c8 3f ca 02
       -1.4044831e-37 -5.0197807e-38 -1.3599117e-37 2.971784e-37
0002d0 b6 c9 dc 02 da 5c 8a 82 90 f2 cc 82 f5 fe 9e 02
       3.244187e-37 -2.0330572e-37 -3.011433e-37 2.3362352e-37
0002e0 fa 0b 45 83 5d 66 86 82 bd 15 e3 81 20 eb 1d 03
       -5.7906845e-37 -1.9748284e-37 -8.3417823e-38 4.6408064e-37
0002f0 ce a9 1b 83 40 cc 6b 82 be 83 ae 02 52 a9 20 82
       -4.5745332e-37 -1.732369e-37 2.5642618e-37 -1.1803536e-37
000300 3f af a1 81 a8 09 41 03 61 d0 ef 82 55 ad 31 02
       -5.9393525e-38 5.6728687e-37 -3.5237497e-37 1.305365e-37
000310 7c 90 03 83 45 18 ef 02 d8 a0 2e 03 75 a5 58 82
       -3.86633e-37 3.5131824e-37 5.1318644e-37 -1.5916658e-37
000320 1d 97 9d 02 e8 da 0c 03 cb 32 17 83 96 ad b6 01
       2.3155811e-37 4.1393594e-37 -4.443322e-37 6.7105325e-38
000330 14 9f 2a 81 91 ce 31 03 77 c2 ee 02 a4 45 50 03
       -3.1338202e-38 5.225275e-37 3.5082574e-37 6.120565e-37
000340 ee e2 dd 01 07 95 8f 82 1e 6b dd 82 c3 88 00 83
       8.1508207e-38 -2.10975e-37 -3.2534514e-37 -3.7772814e-37
000350 16 9f 01 83 c5 50 23 82 42 08 8a 02 9c 64 01 00
       -3.8092315e-37 -1.1998528e-37 2.0282017e-37 1.27927e-40
000360 57 2a 35 83 9a 41 8c 02 c7 f4 11 83 44 fd 61 01
       -5.3239723e-37 2.0608805e-37 -4.289266e-37 4.1507682e-38
000370 5c 84 69 00 36 ad 50 83 56 57 0d 83 e8 de d6 02
       9.690209e-39 -6.1324543e-37 -4.1536433e-37 3.1572416e-37
000380 e4 95 91 02 9c e3 41 82 2a 52 1a 82 e6 87 16 83
       2.1391868e-37 -1.4244721e-37 -1.1337713e-37 -4.423704e-37
000390 75 68 37 83 44 fc 3a 03 48 ea d1 81 a4 01 d6 02
       -5.3898777e-37 5.4950074e-37 -7.711065e-38 3.1445416e-37
0003a0 a2 87 fb 02 16 34 4a 01 b1 b4 9d 02 7c ff 80 02
       3.6958985e-37 3.713891e-38 2.3172788e-37 1.895455e-37
0003b0 a9 a6 54 82 0d 25 54 83 d1 d4 2b 02 4c 97 d8 02
       -1.5623129e-37 -6.2343733e-37 1.2624171e-37 3.1825188e-37
0003c0 15 f9 01 03 c2 cf 84 82 94 e6 0a 81 34 cd 13 02
       3.8195625e-37 -1.9514904e-37 -2.551203e-38 1.0858745e-37
0003d0 b7 a2 91 82 6c a0 22 02 e2 87 a1 02 22 85 b2 81
       -2.1399229e-37 1.1947919e-37 2.3734817e-37 -6.557791e-38
0003e0 76 fc f7 81 af d7 5f 03 92 ff 4a 02 92 25 12 02
       -9.1095734e-38 6.5781403e-37 1.4913961e-37 1.0737168e-37
0003f0 58 a0 4b 01 f0 23 ed 02 75 1a b1 82 16 a8 b4 02
       3.7400252e-38 3.4844647e-37 -2.6022998e-37 2.65451e-37
