models/model.pt (torch, 378811 bytes, 14 tensors)

lstm.weight_ih_l0 f4 [256, 39]
0	0xbb6d3f02	-0.0036200886
1	0x3cd04fa6	0.025428604
2	0x3d69a145	0.057038564
3	0xbb1607ca	-0.0022892826
4	0xbb837dd8	-0.0040128045
5	0xbcd2101d	-0.025642449
6	0xbb829b91	-0.00398583
7	0x3dbd3085	0.0923777
8	0xbbed596d	-0.0072433264
9	0x3d8ce0fd	0.068788506
10	0x3dd0b6d5	0.101911224
11	0x3b15137d	0.0022747212
12	0xbd7e97a8	-0.06215635
13	0x3d5e4ba9	0.054271374
14	0x3da9b009	0.08285529
15	0xbc547fd8	-0.012969933
16	0x3d946477	0.07245725
17	0xbcd23f0a	-0.025664825
18	0x3d515f33	0.05111618
19	0x3dcddf04	0.100523025
20	0x3d4a0b5a	0.049327232
21	0x3d470765	0.048591036
22	0xbcf1a057	-0.029495401
23	0xbd3a6f42	-0.04551626
24	0x3d827b8e	0.063712224
25	0x3d66b179	0.056321595
26	0xbd1b44b2	-0.03790731
27	0x3d7ed4e1	0.062214736
28	0x3de73373	0.1128911
29	0xbb9dd251	-0.0048163314
30	0xbd7a480a	-0.061103858
31	0x3ce75d43	0.028242713
32	0x3ae2cd53	0.0017303623
33	0x3dd2e0ae	0.102967605
34	0x3d10f27a	0.035387494
35	0x3d35d9be	0.04439711
36	0xbd87035b	-0.06592437
37	0xbd819038	-0.06326336
38	0xbc96782e	-0.018367853
39	0xbdb80998	-0.08986205
40	0xbd507514	-0.050892904
41	0x3d67d8c3	0.056603204
42	0x3d572378	0.05252406
43	0x3daf6f6e	0.085661754
44	0xbb4bc759	-0.0031094162
45	0xbd1378d5	-0.036003906
46	0x3cf05d40	0.02934134
47	0xbd44a024	-0.048004285
48	0x3da836e8	0.082135975
49	0xbcea204f	-0.028579859
50	0x3b2ad0ad	0.0026064322
51	0xbc6f4f76	-0.014606347
52	0x3d7f5533	0.06233711
53	0x3d80dfd8	0.06292695
54	0xbd38b83d	-0.04509758
55	0xba9f3406	-0.0012146241
56	0xbd0569d3	-0.032571625
57	0xbdc52354	-0.09625879
58	0xbd0d7ded	-0.03454392
59	0x3c83bcf8	0.016081318
60	0xbd0a2873	-0.03372998
61	0xbc25e1db	-0.010124649
62	0xbc88db2e	-0.016706076
63	0xbd6dd6bf	-0.058066126
64	0x3db22194	0.08697811
65	0x3dbadc08	0.09123999
66	0x3c74a9ac	0.014933031
67	0x399d610c	0.0003001768
68	0x3b0fc921	0.002193995
69	0x3c958b63	0.018254941
70	0x3d12cb68	0.035838515
71	0x3d514a66	0.051096343
72	0x3df51af6	0.11968033
73	0xbc5beece	-0.013423635
74	0x3d86d47b	0.06583496
75	0x3d8d66cd	0.06904373
76	0xbccc1aa2	-0.024915043
77	0x3b174cfb	0.0023086655
78	0x3d597dc2	0.053098448
79	0x3b77ff8b	0.0037841524
80	0x3c9c13fe	0.019052502
81	0x3ddc0f1a	0.10745068
82	0xbd98bd5f	-0.07457995
83	0xbb8a267d	-0.004216014
84	0x3dc5c0e6	0.09655933
85	0xbd9ddd65	-0.07708243
86	0xbd843039	-0.0645451
87	0x3c933386	0.017968904
88	0xbd3440b3	-0.044007014
89	0xbbbacb33	-0.0057004928
90	0xbcde3ca8	-0.027128533
91	0x3d536749	0.051612172
92	0xbd0b39d9	-0.033990715
93	0x3d0a9ba8	0.03383985
94	0xbc71a0ea	-0.014747838
95	0x3bb83add	0.0056222514
96	0xbd643542	-0.055714853
97	0x3d3e7238	0.046495646
98	0xbda2d8e2	-0.07951523
99	0x3d5f1803	0.05446626
100	0x3da99bfb	0.08281704
101	0x3ceffc6d	0.02929517
102	0x3de74fdc	0.11294529
103	0x3deb2f07	0.11483579
104	0x3b209d43	0.0024507798
105	0xbc8068d4	-0.015674986
106	0xbd846239	-0.06464047
107	0x3b5f2000	0.0034046173
108	0xbdb294d0	-0.0871979
109	0xbca16374	-0.019700743
110	0x3cd6ab13	0.026204621
111	0xbdbb51fa	-0.09146495
112	0x3da8f998	0.08250731
113	0xbd9d2c7f	-0.076745026
114	0x3d18a97c	0.037271008
115	0xbd0d9401	-0.034564976
116	0xbd9a7dce	-0.075435266
117	0xbdafa9b5	-0.08577291
118	0x388a8ea8	6.6069246e-05
119	0xbd881fcf	-0.06646692
120	0x3cac037d	0.020997757
121	0x3d54e608	0.051977187
122	0xbd6864b5	-0.056736667
123	0xbd52e7fb	-0.051490765
124	0x3d33678a	0.043799914
125	0x3c2c0716	0.010499736
126	0xbc19502a	-0.0093574915
127	0x3d82eb80	0.06392574
128	0xbbb2006f	-0.0054321806
129	0xbd1658e0	-0.03670585
130	0x3d081cef	0.03323072
131	0x3de33283	0.11093619
132	0xbc387629	-0.01125864
133	0x3d7561c3	0.059907686
134	0xbcfbd02d	-0.030738914
135	0x3d62cef3	0.055373143
136	0xbd4d5cba	-0.05013726
137	0xbd976c75	-0.073937334
138	0x3d7514b5	0.0598342
139	0x3d6dfb6a	0.058101095
140	0xbc98ed08	-0.018667713
141	0xbd5e695c	-0.054299697
142	0xbc0e63c4	-0.008690778
143	0x3dce5691	0.10075105
144	0xbd47835a	-0.04870925
145	0x3de87890	0.113511205
146	0x3af70a00	0.0018847585
147	0x3db8d53b	0.090250455
148	0x3d4427f3	0.04788966
149	0x3d92040e	0.071296796
150	0x3d492110	0.049103796
151	0x3dab8176	0.08374302
152	0x3d9f6189	0.07782275
153	0xbcd97cb8	-0.026548728
154	0xbd3a2fb3	-0.045455646
155	0x3d5fa9c5	0.054605264
156	0x3bdd0c2a	0.006745835
157	0xbc73f48e	-0.014889849
158	0xbdb98d3b	-0.09060141
159	0xbd64ac99	-0.055828664
160	0xbdaa4cff	-0.08315467
161	0xbd7bb156	-0.061448418
162	0xbbd72b0d	-0.0065664113
163	0xbd091df7	-0.033475842
164	0xbcdf8049	-0.02728285
165	0x3d257fd3	0.040405106
166	0xbdc10a50	-0.09425795
167	0xbcba9068	-0.022773936
168	0xbc1b3f1a	-0.009475494
169	0x3d4e2ff5	0.050338704
170	0xbc74fd7f	-0.014953016
171	0x3c8a56c7	0.016887082
172	0x3d053cef	0.032528814
173	0xbcf4e504	-0.02989436
174	0xbbc14a67	-0.005898762
175	0xba491a72	-0.0007671482
176	0xba083315	-0.00051956
177	0x3bd487c4	0.006485911
178	0xbcc29b92	-0.023755822
179	0xbc1f0f89	-0.009708294
180	0xbd1feca1	-0.039044026
181	0x3d1daf94	0.038497522
182	0x3b84fed2	0.0040586973
183	0x3cc08425	0.023500511
184	0x3d90463a	0.07044645
185	0x3bae153d	0.0053125904
186	0x3c70c31f	0.014694958
187	0xbd28c250	-0.041200936
188	0xbd9504dd	-0.07276318
189	0x3d20f091	0.039291922
190	0xbd002360	-0.031283736
191	0xbdb23f46	-0.08703475
192	0x3d33c1b1	0.04388589
193	0x3cce1d3f	0.02516043
194	0x3d39723e	0.045274965
195	0x3d9a6730	0.07539213
196	0x3dab9e4f	0.08379804
197	0xbdb36be3	-0.08760812
198	0xbda3487c	-0.0797281
199	0xbc839a05	-0.016064653
200	0x3bb7e424	0.0056119133
201	0xbc92bd8e	-0.017912652
202	0x3cfffd8d	0.031248832
203	0xbd50732d	-0.05089109
204	0xbdb1a14a	-0.086733416
205	0x3de45a7c	0.11150071
206	0xbbe127fb	-0.006871221
207	0xbbf81f6d	-0.0075721056
208	0x3d1bcc9d	0.03803693
209	0xbd95846a	-0.073006466
210	0x3d9291a6	0.071566865
211	0x3da87042	0.082245365
212	0xbd308e15	-0.04310425
213	0x3d612162	0.054963477
214	0xbd536f08	-0.05161956
215	0xbc087371	-0.008328305
216	0x3da37841	0.07981921
217	0xbd9865e9	-0.07441313
218	0xbc1fde03	-0.009757522
219	0xbd368263	-0.04455794
220	0xbd4eca2f	-0.050485786
221	0x3dedfe5d	0.116207816
222	0x3d7dbf26	0.06194987
223	0x3dae716f	0.085177295
224	0x3be3d2ca	0.0069526182
225	0x3e009675	0.12557395
226	0x3da4da90	0.080495
227	0xbd88a46b	-0.06671985
228	0xbb70a720	-0.0036720708
229	0xbb36a0c9	-0.0027866832
230	0x3df3bd47	0.11901336
231	0x3dd1dcfe	0.10247229
232	0x3dc7539e	0.097327456
233	0xbc4f4f11	-0.012653128
234	0x3db5d1c7	0.088779025
235	0xbcacb7c2	-0.021083716
236	0xbcb628ca	-0.022236247
237	0xbd9b186e	-0.07573019
238	0x3cb0a346	0.02156223
239	0xbbeef331	-0.0072921743
240	0x3d2ddef6	0.04244896
241	0xbbf9484e	-0.0076074963
242	0xbdae9e2c	-0.08526263
243	0xbd6dec70	-0.058086812
244	0xbd4352f8	-0.047686547
245	0x3a07857f	0.0005169734
246	0xbb4a0521	-0.003082581
247	0x3dd16954	0.10225168
248	0xbd033a91	-0.032038275
249	0x3de323e5	0.11090831
250	0xbc0427db	-0.008066143
251	0xbc08205e	-0.008308498
252	0xbc0708ed	-0.008241874
253	0xbd920e40	-0.07131624
254	0xbdcef636	-0.10105555
255	0x3c8a605d	0.016891653

lstm.weight_hh_l0 f4 [256, 64]
0	0x8260accc	-1.6506511e-37
1	0x0260c3c6	1.6513105e-37
2	0x82109f1d	-1.0625112e-37
3	0x034870b6	5.8904103e-37
4	0x034f0365	6.083573e-37
5	0x03041850	3.8819223e-37
6	0x83035e57	-3.8605737e-37
7	0x02337202	1.3183562e-37
8	0x8366190a	-6.761967e-37
9	0x03036c9f	3.862213e-37
10	0x835c75a4	-6.4787234e-37
11	0x01539b94	3.88662e-38
12	0x8287bca6	-1.9944746e-37
13	0x832df062	-5.1116077e-37
14	0x02b67bb4	2.6813499e-37
15	0x82b8783d	-2.7105383e-37
16	0x02566acc	1.5752886e-37
17	0x80f1e070	-2.2212868e-38
18	0x8162b0cc	-4.163649e-38
19	0x00c4bdd8	1.806786e-38
20	0x02e0572d	3.2963878e-37
21	0x02d029d3	3.058686e-37
22	0x0208e0ad	1.0056181e-37
23	0x82d26816	-3.091647e-37
24	0x02bdcafa	2.7887557e-37
25	0x82343328	-1.3238993e-37
26	0x02859071	1.96255e-37
27	0x818b49f6	-5.1166665e-38
28	0x030c3a0a	4.120893e-37
29	0x830d654e	-4.155247e-37
30	0x82bfe7ae	-2.8197905e-37
31	0x02e46048	3.3556852e-37
32	0x03165339	4.4176573e-37
33	0x03425759	5.7111746e-37
34	0x82f8ff9a	-3.6587033e-37
35	0x82aec97a	-2.5682644e-37
36	0x821df1c0	-1.1603917e-37
37	0x01f61583	9.0396996e-38
38	0x82ec7142	-3.474209e-37
39	0x834f6769	-6.095054e-37
40	0x02b2673e	2.6214007e-37
41	0x829840cd	-2.2371586e-37
42	0x8162036c	-4.15121e-38
43	0x82344889	-1.3245128e-37
44	0x013728b4	3.3640995e-38
45	0x021801af	1.116768e-37
46	0x834652a2	-5.828183e-37
47	0x8314e7ae	-4.3759246e-37
48	0x81978014	-5.565242e-38
49	0x8357f318	-6.346188e-37
50	0x82d7627e	-3.1647942e-37
51	0x03025e1c	3.83116e-37
52	0x8311f9b2	-4.2898306e-37
53	0x02d78b03	3.16712e-37
54	0x82c91f53	-2.9552275e-37
55	0x0235ac64	1.3347254e-37
56	0x834a3c8d	-5.9431974e-37
57	0x0315f8fc	4.4072985e-37
58	0x835c5944	-6.475466e-37
59	0x01721a84	4.4467404e-38
60	0x83018ce3	-3.8071423e-37
61	0x02e4b505	3.360549e-37
62	0x023d5c7f	1.3912072e-37
63	0x033816ae	5.4098775e-37
64	0x8302c4e7	-3.84296e-37
65	0x8328aa11	-4.956599e-37
66	0x8280896d	-1.8886788e-37
67	0x821598f0	-1.0990682e-37
68	0x02e267ad	3.3267222e-37
69	0x831eb046	-4.663438e-37
70	0x01e585de	8.4313404e-38
71	0x036326b7	6.6753747e-37
72	0x81b35c18	-6.5886363e-38
73	0x81153c22	-2.741012e-38
74	0x82fe4fd4	-3.7367765e-37
75	0x8337e961	-5.4046772e-37
76	0x03438326	5.74559e-37
77	0x025232f9	1.5442992e-37
78	0x8198c07c	-5.6112183e-38
79	0x82144e4f	-1.0895796e-37
80	0x82d113c6	-3.072114e-37
81	0x8286bb87	-1.9797166e-37
82	0x034f642b	6.094682e-37
83	0x80c6ba24	-1.8250203e-38
84	0x82b45018	-2.6494594e-37
85	0x823662a7	-1.339956e-37
86	0x007df69c	1.1567904e-38
87	0x020d09ac	1.036182e-37
88	0x02a7c824	2.465332e-37
89	0x828d004d	-2.071826e-37
90	0x833d2f14	-5.559615e-37
91	0x02e2d70c	3.3331146e-37
92	0x834e381a	-6.060236e-37
93	0x0340abda	5.6621005e-37
94	0x03645bab	6.7108408e-37
95	0x03274148	4.915183e-37
96	0x8298ae59	-2.2434463e-37
97	0x026cd3f4	1.7399369e-37
98	0x015f5776	4.1021381e-38
99	0x02b4c994	2.6564323e-37
100	0x035bccdc	6.4593483e-37
101	0x82e3d233	-3.34753e-37
102	0x0302b298	3.840858e-37
103	0x8320dc82	-4.7272905e-37
104	0x03251ca8	4.8522038e-37
105	0x032c654a	5.066253e-37
106	0x82e0193a	-3.2928321e-37
107	0x00ee991c	2.1911773e-38
108	0x02c65217	2.9140602e-37
109	0x02d9329f	3.191434e-37
110	0x825b6309	-1.6118001e-37
111	0x004509e0	6.340192e-39
112	0x020c3210	1.0299943e-37
113	0x835c5109	-6.4745213e-37
114	0x826f0350	-1.7559898e-37
115	0x036f814e	7.038422e-37
116	0x820a40de	-1.0157255e-37
117	0x82b86506	-2.7094355e-37
118	0x826add26	-1.7255071e-37
119	0x82da2500	-3.2053458e-37
120	0x013dd722	3.4868168e-38
121	0x825a31f0	-1.6030442e-37
122	0x81e6ca4a	-8.4778927e-38
123	0x034bb6a1	5.9865986e-37
124	0x02a3c809	2.4065512e-37
125	0x823edc7d	-1.4022272e-37
126	0x034715f2	5.8506036e-37
127	0x021d1a3c	1.1542067e-37
128	0x032e5d87	5.124137e-37
129	0x0191b167	5.351915e-38
130	0x032714a7	4.9100597e-37
131	0x02851cad	1.9559053e-37
132	0x82da89ce	-3.2111317e-37
133	0x819fe444	-5.873492e-38
134	0x02001c92	9.412154e-38
135	0x03264142	4.885793e-37
136	0x02f20d0d	3.5566195e-37
137	0x81e8fbdf	-8.558476e-38
138	0x831ea18e	-4.6617483e-37
139	0x034e671b	6.065632e-37
140	0x82a867ae	-2.474489e-37
141	0x80e40970	-2.0941879e-38
142	0x82cd127c	-3.0132652e-37
143	0x0345a89c	5.808665e-37
144	0x8299b249	-2.258366e-37
145	0x036a36b7	6.882923e-37
146	0x02732e7e	1.7866163e-37
147	0x8248c2aa	-1.4749545e-37
148	0x01b55788	6.66145e-38
149	0x01faac7a	9.208299e-38
150	0x0329c408	4.988967e-37
151	0x82db0e19	-3.218725e-37
152	0x81b1ef00	-6.536248e-38
153	0x02ca3ba8	2.9715473e-37
154	0x01af5d9f	6.4419187e-38
155	0x03105a93	4.242177e-37
156	0x021d17e4	1.1541395e-37
157	0x030483d3	3.894264e-37
158	0x82da6938	-3.2092614e-37
159	0x03354af7	5.3277175e-37
160	0x82e95866	-3.4287011e-37
161	0x829c3661	-2.2953352e-37
162	0x8364ceb1	-6.724045e-37
163	0x03051078	3.9104092e-37
164	0x832a8e4a	-5.012185e-37
165	0x03372d3c	5.3830793e-37
166	0x01fe8887	9.350077e-38
167	0x80d40dc8	-1.9474069e-38
168	0x02a49675	2.4183992e-37
169	0x03167ded	4.4225594e-37
170	0x810d2b98	-2.5928887e-38
171	0x02a86280	2.4741918e-37
172	0x83658d1e	-6.7459046e-37
173	0x829ea258	-2.3309194e-37
174	0x818c48f1	-5.1532544e-38
175	0x0367be36	6.810315e-37
176	0x832cdff9	-5.0803365e-37
177	0x02b9d79a	2.7307056e-37
178	0x02ad94bf	2.5505441e-37
179	0x00845a80	1.2154751e-38
180	0x01ba2dee	6.8391515e-38
181	0x8220285e	-1.1766528e-37
182	0x0231ce6f	1.306315e-37
183	0x034f510d	6.0924874e-37
184	0x0101cc0e	2.383996e-38
185	0x022dc6fe	1.2767141e-37
186	0x8304714f	-3.8921385e-37
187	0x02a705d0	2.454178e-37
188	0x028823ac	2.0003879e-37
189	0x023278be	1.3112026e-37
190	0x80ce8714	-1.8966569e-38
191	0x02ce4c4e	3.0312776e-37
192	0x81c58654	-7.255912e-38
193	0x80e5ed48	-2.1115449e-38
194	0x820330e9	-9.638397e-38
195	0x829bfbc9	-2.291972e-37
196	0x01d7a948	7.9221433e-38
197	0x81bd8eb2	-6.9632393e-38
198	0x02a6e291	2.452155e-37
199	0x02b95668	2.7232902e-37
200	0x83051685	-3.911104e-37
201	0x82944184	-2.178425e-37
202	0x029293e9	2.1537668e-37
203	0x02a29034	2.388653e-37
204	0x826775d3	-1.7005014e-37
205	0x0044a1e8	6.302895e-39
206	0x02cd3e22	3.0157705e-37
207	0x035cdbda	6.4904567e-37
208	0x021e4c82	1.1629963e-37
209	0x0301131b	3.7931625e-37
210	0x82ea648f	-3.4440928e-37
211	0x03074e38	3.9762725e-37
212	0x81bc6658	-6.920715e-38
213	0x833d6ab6	-5.5664606e-37
214	0x827e6dce	-1.8692485e-37
215	0x030a81c3	4.0703514e-37
216	0x02f6e536	3.6278012e-37
217	0x80b68da4	-1.6764871e-38
218	0x03041cc0	3.8824317e-37
219	0x8234103c	-1.322897e-37
220	0x02feeb4c	3.7457e-37
221	0x02f3a494	3.5800104e-37
222	0x02957beb	2.1964708e-37
223	0x831a0d7b	-4.5272007e-37
224	0x019f6cec	5.856367e-38
225	0x810aa988	-2.546823e-38
226	0x83404ca8	-5.6511726e-37
227	0x836750a2	-6.797736e-37
228	0x82a6d3fc	-2.451318e-37
229	0x0293a9c0	2.169714e-37
230	0x01f21fca	8.8942375e-38
231	0x82b876e9	-2.7104621e-37
232	0x00f37e00	2.2361226e-38
233	0x02e97a08	3.4306315e-37
234	0x8342d2bb	-5.7253383e-37
235	0x02ee8ac3	3.5050602e-37
236	0x82d94c46	-3.1929063e-37
237	0x8331ae89	-5.221598e-37
238	0x830a5d7e	-4.066188e-37
239	0x824c06ff	-1.4989561e-37
240	0x82880818	-1.998805e-37
241	0x8125e338	-3.0468735e-38
242	0x83494f90	-5.9159924e-37
243	0x8325aff2	-4.8691117e-37
244	0x02e23cc7	3.32426e-37
245	0x034fe9dd	6.1100295e-37
246	0x8216e68b	-1.1086422e-37
247	0x03051402	3.9108155e-37
248	0x035764cc	6.329853e-37
249	0x02960310	2.2042277e-37
250	0x02988510	2.2410767e-37
251	0x822f8e55	-1.2897817e-37
252	0x829b7696	-2.2843268e-37
253	0x8200684e	-9.433889e-38
254	0x8308988e	-4.014193e-37
255	0x8299b6d2	-2.2586263e-37

lstm.bias_ih_l0 f4 [256]
0	0x3e05e272	0.13074663
1	0x3c005e6a	0.00783501
2	0x3bcac914	0.006188521
3	0x3d7572cd	0.059923936
4	0x3dc1693b	0.09443899
5	0xbd67f122	-0.056626447
6	0xbd2dc6c9	-0.042425904
7	0x3e8552f1	0.26039842
8	0xbcf800b3	-0.03027377
9	0x3d7bc1ec	0.061464235
10	0x3dbcd234	0.092197806
11	0xbd6e7d85	-0.058225174
12	0x3c68c855	0.014207919
13	0x3e091cd6	0.13389906
14	0x3d079da3	0.03310932
15	0x3daed4d6	0.08536689
16	0xbd81bd7f	-0.06334972
17	0x3d59c30b	0.053164523
18	0xbc17c46e	-0.009263141
19	0xbcbee0fd	-0.023300642
20	0xbd9baab7	-0.07600921
21	0xbd3a49da	-0.045480587
22	0x3dcfec95	0.10152546
23	0x3e0e918c	0.13922709
24	0x3ca7a49a	0.02046423
25	0x3c955917	0.018230958
26	0xbc69583a	-0.014242226
27	0x3dde2f57	0.10848873
28	0x3c26e230	0.010185763
29	0xbab12126	-0.0013513907
30	0x3dd6230a	0.10455902
31	0xbd458f9a	-0.048232652
32	0x3dfc5fde	0.12322973
33	0x3d20b668	0.039236456
34	0xbd4df5f0	-0.050283372
35	0x3d56fae5	0.052485365
36	0x3d789b1b	0.060694795
37	0x3d65d672	0.056112714
38	0xbd499fa3	-0.049224507
39	0xbcb87a5d	-0.022519285
40	0xbcc614df	-0.024179874
41	0x3c3a1d18	0.011359476
42	0xbc9fd234	-0.019509412
43	0x3e137f27	0.14403974
44	0x3e03fba0	0.12888956
45	0x3d921f32	0.07134856
46	0xbd2858b1	-0.041100208
47	0x3da230be	0.07919453
48	0x3da5b539	0.08091206
49	0xbd9c04da	-0.07618113
50	0x3da9a3d7	0.08283203
51	0x3dde87f3	0.10865774
52	0xbc10747b	-0.008816834
53	0x3dc7a80a	0.09748848
54	0xbd603ce5	-0.054745574
55	0x3db74b3f	0.08949899
56	0xbd2f9ad5	-0.04287227
57	0xbda48616	-0.08033387
58	0x3e787c54	0.24266177
59	0xbc06bdc7	-0.008223957
60	0x3d7c3b67	0.061580088
61	0x3c174fbb	0.009235318
62	0x3df6cd86	0.12050919
63	0x3daf84b1	0.08570231
64	0x0297a640	2.2282879e-37
65	0x03335c5c	5.2709396e-37
66	0x01c35ab5	7.1761845e-38
67	0x0326ade4	4.898263e-37
68	0x00d0bed8	1.9170245e-38
69	0x02ebda66	3.46555e-37
70	0x0339a53a	5.4556285e-37
71	0x0235b0a4	1.3348473e-37
72	0x836aaae1	-6.896258e-37
73	0x810dcd4e	-2.604491e-38
74	0x02ae30b5	2.5594959e-37
75	0x82fa088a	-3.67391e-37
76	0x036968ba	6.8592766e-37
77	0x832f51c3	-5.1521736e-37
78	0x82b68df2	-2.682397e-37
79	0x0223a826	1.2023605e-37
80	0x01a79db8	6.1572427e-38
81	0x0215b302	1.0998164e-37
82	0x02bd7464	2.783786e-37
83	0x02c32f58	2.8679849e-37
84	0x02a8e096	2.4814287e-37
85	0x031c2ad6	4.5893453e-37
86	0x01ce32a5	7.574512e-38
87	0x0353cd1d	6.2242786e-37
88	0x019d21f4	5.772141e-38
89	0x01f17f2c	8.87119e-38
90	0x03348044	5.3044488e-37
91	0x8108480c	-2.5030946e-38
92	0x02ae5b5f	2.5619447e-37
93	0x82761c64	-1.8081373e-37
94	0x026da52f	1.7459415e-37
95	0x002a827c	3.9039e-39
96	0x82c313b4	-2.8663984e-37
97	0x83136a7e	-4.3321664e-37
98	0x0315a65d	4.397814e-37
99	0x8366d45f	-6.7834715e-37
100	0x02c5b0d2	2.9048038e-37
101	0x02f6f20f	3.6285386e-37
102	0x82b7c60b	-2.7003104e-37
103	0x8328bf20	-4.9590163e-37
104	0x0350ecaf	6.1397406e-37
105	0x03558f06	6.2759257e-37
106	0x0325d3ee	4.8732425e-37
107	0x83569543	-6.306029e-37
108	0x8187452f	-4.969044e-38
109	0x03183108	4.472507e-37
110	0x01f5cebb	9.029543e-38
111	0x83314753	-5.20975e-37
112	0x83368d02	-5.364686e-37
113	0x033d7722	5.5678866e-37
114	0x8287ad8a	-1.9936074e-37
115	0x021f07ea	1.1683746e-37
116	0x01959f5a	5.4962614e-38
117	0x8319a664	-4.5153666e-37
118	0x031d0312	4.614168e-37
119	0x02ba124c	2.7340746e-37
120	0x83182e0d	-4.472165e-37
121	0x033e7f82	5.5982353e-37
122	0x02eac3be	3.449556e-37
123	0x02b6c8c8	2.685774e-37
124	0x80f6e508	-2.2673693e-38
125	0x81885939	-5.008654e-38
126	0x00d0b0fc	1.9165273e-38
127	0x02d9c642	3.1999079e-37
128	0xbd2505f5	-0.040288884
129	0x3e2e6076	0.17028984
130	0xbdffe8fc	-0.1249561
131	0x3c992299	0.018693255
132	0xbe1c1a3b	-0.15244381
133	0xbdc1fc79	-0.094719835
134	0x3e008d81	0.1255398
135	0x3e3ff136	0.18744358
136	0x3d2d2c87	0.042278793
137	0x3ca022d6	0.019547861
138	0x3e0bd5bb	0.1365575
139	0x3d2cb8d9	0.042168472
140	0xbdb9b31c	-0.090673655
141	0x3d4cd1ec	0.050004885
142	0x3c25b491	0.010113851
143	0x3c4238c5	0.011854355
144	0xbe15b9bb	-0.14621632
145	0xbbb6b236	-0.0055754436
146	0x3c6d0ddc	0.014468636
147	0x3d34e6f7	0.044165578
148	0x3d1a7800	0.037712097
149	0x3d0346a8	0.032049805
150	0xbe2e407f	-0.17016791
151	0x3909d1b0	0.00013143453
152	0xbc8e7fa6	-0.017394852
153	0xbdf499ee	-0.11943422
154	0x3bc4ed75	0.0060097524
155	0xbe155289	-0.14582266
156	0xbe03b5c3	-0.12862305
157	0xbd135957	-0.035973873
158	0xbe37b055	-0.17938359
159	0xbc4cfa04	-0.01251078
160	0x3e2c7cec	0.16844529
161	0x3d8f5419	0.06998462
162	0x3d77156e	0.06032317
163	0xbe06bedf	-0.13158749
164	0x3e2745b3	0.16335182
165	0xba851843	-0.0010154325
166	0x3db9e9f2	0.09077825
167	0x3d768b14	0.06019123
168	0xbc9abc9b	-0.018888762
169	0xbe12df3a	-0.14342967
170	0x3dfb5a03	0.12273028
171	0x3df369c1	0.11885405
172	0x3a5969c3	0.0008293653
173	0x3c936e63	0.017996972
174	0x3dbd97ca	0.09257467
175	0x3e2f4d31	0.1711929
176	0xbdd6db74	-0.10491076
177	0x3e03ac4c	0.12858695
178	0x3d935213	0.07193389
179	0x3e27c078	0.16382015
180	0xbe0a8c93	-0.13530187
181	0xbc455e16	-0.012046358
182	0xbdb56232	-0.0885662
183	0x3e22bc45	0.15892132
184	0xbe11dd35	-0.1424454
185	0xbb64fd4e	-0.003494102
186	0x3de8ca69	0.11366732
187	0xbce8e775	-0.02843068
188	0xbce4ec4f	-0.027944712
189	0xbc2ae202	-0.010429861
190	0x3d6ae976	0.057351552
191	0x3e16f7e7	0.14743005
192	0xbc49f8a3	-0.012327346
193	0x3d4e55b8	0.050374717
194	0xbcda7df0	-0.02667138
195	0x3d740079	0.059570763
196	0x3c04f2c1	0.008114518
197	0xbd11e166	-0.035615347
198	0x3d748f5d	0.059707034
199	0x3e7fba92	0.24973515
200	0xbd43a459	-0.047764156
201	0x3d812c8a	0.06307323
202	0x3c82c694	0.01596383
203	0x3c7e2b02	0.015513184
204	0x3e0267a6	0.12734851
205	0x3d9446ff	0.07240104
206	0xbdadfaad	-0.08495078
207	0xbd6a798e	-0.05724483
208	0xbc3c999c	-0.011511233
209	0x3d97c760	0.07411075
210	0xbc8ebbc6	-0.017423522
211	0x3d1fd6d1	0.039023224
212	0x3d2d9a5a	0.04238353
213	0x3db4f6b9	0.08836121
214	0x3c45c4b3	0.0120708225
215	0x3e206359	0.15662898
216	0xbd705707	-0.058676746
217	0xbd5e9651	-0.05434257
218	0x3c1febf7	0.009760848
219	0x3df49956	0.11943309
220	0xbd54e61e	-0.05197727
221	0xbda174ae	-0.07883583
222	0x3beb1a2a	0.00717475
223	0xbcf85e74	-0.030318476
224	0xbc8bc32d	-0.01706084
225	0x3c8da387	0.01728989
226	0xbcc9fed7	-0.02465765
227	0x3da99989	0.08281238
228	0x3e082b58	0.13297784
229	0x3dacc8c1	0.08436728
230	0x3d1bb6b6	0.038016044
231	0x3e044e57	0.1292051
232	0xbd0669d2	-0.032815762
233	0x3d0b3912	0.033989973
234	0x3dec8a1e	0.11549781
235	0xbc92ae6e	-0.01790544
236	0xbd8c866e	-0.06861578
237	0x3ddc0ce3	0.107446454
238	0x3e1c3175	0.15253241
239	0xbd7a32ad	-0.061083484
240	0x3d96e4a9	0.07367832
241	0x3df55ea1	0.1198094
242	0x3d7ed21f	0.062212106
243	0xbd2e1d46	-0.042508386
244	0xbd21cae8	-0.039500147
245	0x3deb3ebf	0.11486577
246	0x3c8fb03c	0.01754009
247	0x3dde53a7	0.10855799
248	0x3db7f052	0.08981384
249	0x39168edd	0.00014358335
250	0x3e64739c	0.22309726
251	0x3e1668d2	0.14688423
252	0x3d8c0cbc	0.068383664
253	0xbd32235e	-0.04349076
254	0x3e05cc49	0.1306621
255	0xbd83dd9c	-0.06438753

lstm.bias_hh_l0 f4 [256]
0	0xbd847a07	-0.06468587
1	0x3cfce13c	0.030869119
2	0xbd7d809b	-0.061890226
3	0x3e07a515	0.13246568
4	0x3d7b3543	0.06133009
5	0xbd1667f2	-0.036720224
6	0x3d0a9c24	0.033840314
7	0x3e93f177	0.2889516
8	0x3bc2bc92	0.0059428895
9	0xbd7e02ed	-0.06201451
10	0xbd740835	-0.05957814
11	0x3e05b7b3	0.13058357
12	0xbbdfe90a	-0.0068332003
13	0xbd0f7b80	-0.03502989
14	0x3d84193c	0.064501256
15	0xbd5fc495	-0.054630835
16	0x3ddb2a88	0.107014716
17	0x3de46b52	0.11153282
18	0x3d959eec	0.073057026
19	0xbc2abe3d	-0.010421333
20	0x3e0628c2	0.13101485
21	0xba92105f	-0.0011143795
22	0x3d7d67b3	0.061866473
23	0xbd3e206b	-0.046417635
24	0xbd8d54da	-0.0690095
25	0x3e02e5e7	0.12783013
26	0xbcd0a899	-0.025471019
27	0x3e089b6a	0.13340536
28	0x3db40cad	0.0879148
29	0xbd5d5180	-0.054032803
30	0x3ca95e58	0.02067487
31	0x3e0dd942	0.13852409
32	0x3e0eb6c6	0.1393691
33	0xbc1934ab	-0.009350936
34	0xbc17fcd2	-0.009276586
35	0xbd73288e	-0.059364848
36	0xbc05ef0d	-0.00817467
37	0x3dce3544	0.10068753
38	0xbc7bc719	-0.015367293
39	0xbd0b1bcf	-0.033962067
40	0x3c7a7e5e	0.015288917
41	0xbd93bee3	-0.07214143
42	0x3d8f3c29	0.069938965
43	0xbcf82ae0	-0.030293882
44	0xbcfb43a6	-0.030671906
45	0x3e02f5e6	0.12789115
46	0x3e1bd676	0.15218529
47	0x3cdffee4	0.027343221
48	0xbd1a33a7	-0.037646916
49	0x3d27ebce	0.040996365
50	0xbb52bdf4	-0.0032156678
51	0xbda1ada0	-0.078944445
52	0xbd1295b9	-0.035787318
53	0xbc6abfbe	-0.014327941
54	0xbcec9507	-0.028879656
55	0x3cfd5f74	0.030929305
56	0xbd67da34	-0.05660458
57	0x3dc098ab	0.09404119
58	0x3e88a29d	0.26686564
59	0x3e08ad81	0.13347436
60	0x3dd54b97	0.10414808
61	0xbc9489bf	-0.018132089
62	0xbca20f85	-0.01978279
63	0xbd0c9000	-0.034317017
64	0x8206ddaa	-9.90838e-38
65	0x81f5ce8c	-9.0295166e-38
66	0x01bb056e	6.870074e-38
67	0x82bfaf16	-2.8165422e-37
68	0x020002ec	9.404793e-38
69	0x0000a780	6.0088e-41
70	0x830bc3bf	-4.1073134e-37
71	0x83214a02	-4.7398604e-37
72	0x81f78d00	-9.0935795e-38
73	0x019d20a2	5.771952e-38
74	0x826416cb	-1.6757336e-37
75	0x026b3e3a	1.7282931e-37
76	0x8325243c	-4.8530737e-37
77	0x02dc825c	3.2400917e-37
78	0x02f4c9f6	3.5968498e-37
79	0x833a9f9f	-5.4843723e-37
80	0x00c51f00	1.8102713e-38
81	0x03149a2c	4.367027e-37
82	0x82a4eab7	-2.4232354e-37
83	0x83524c18	-6.1800805e-37
84	0x82c9e1f6	-2.966399e-37
85	0x82b83b86	-2.7070535e-37
86	0x8270d684	-1.7693978e-37
87	0x030365d9	3.8614355e-37
88	0x82cc004a	-2.9975272e-37
89	0x02b78476	2.6965462e-37
90	0x01d7bada	7.9246646e-38
91	0x0237205d	1.3454004e-37
92	0x807bf630	-1.1384081e-38
93	0x032ebc76	5.1350347e-37
94	0x002aad28	3.919208e-39
95	0x82837766	-1.9317251e-37
96	0x8361ebef	-6.6392396e-37
97	0x8264ef32	-1.681944e-37
98	0x835d3ded	-6.501715e-37
99	0x03044e0c	3.8880907e-37
100	0x0273ad0d	1.7902484e-37
101	0x818c0c20	-5.1445276e-38
102	0x02b4beb5	2.6558083e-37
103	0x033a887d	5.481717e-37
104	0x02eefb6b	3.5115264e-37
105	0x8307282b	-3.9719045e-37
106	0x033012e7	5.174345e-37
107	0x02dac374	3.2144406e-37
108	0x0350a983	6.1320296e-37
109	0x034fe00a	6.1089017e-37
110	0x8126c460	-3.0630277e-38
111	0x8363e5ab	-6.697295e-37
112	0x829b080a	-2.2779817e-37
113	0x026e6c1a	1.7516502e-37
114	0x0369f330	6.875171e-37
115	0x8298c5f0	-2.2448003e-37
116	0x0349d737	5.9315646e-37
117	0x824ff2a1	-1.5277589e-37
118	0x030d5cf3	4.1542876e-37
119	0x02131c98	1.080806e-37
120	0x013d7bfc	3.4802772e-38
121	0x03460ebb	5.820388e-37
122	0x018516c2	4.888914e-38
123	0x8337ae39	-5.3978864e-37
124	0x8351e46a	-6.1681786e-37
125	0x033f2fd0	5.618474e-37
126	0x00042228	3.79595e-40
127	0x823a0e21	-1.3669177e-37
128	0x3dce2ff0	0.10067737
129	0x3c5411e6	0.01294372
130	0xbc75e0ae	-0.015007181
131	0xbe2ad144	-0.16681391
132	0x3cdf7e70	0.02728197
133	0x3d08c31e	0.033389203
134	0x3da03658	0.07822865
135	0x3d99c135	0.075075544
136	0x3c27e36a	0.010247091
137	0xbe2f03e0	-0.17091322
138	0xbca3ed1a	-0.02001052
139	0x3bbdfefd	0.0057982192
140	0xbe280e51	-0.16411711
141	0x3d4cd0ea	0.050003923
142	0xbc8b07cd	-0.016971493
143	0xbc4ae99c	-0.012384798
144	0xbe1a8793	-0.1509078
145	0xbd7b5c07	-0.06136706
146	0xbd73a2e5	-0.05948152
147	0xbd578dbf	-0.052625414
148	0xbda6a538	-0.08136982
149	0x3dce5569	0.100748844
150	0xbd8dff8c	-0.06933507
151	0x3e2904db	0.16505758
152	0xbdfdab0f	-0.123861425
153	0xbbbaa680	-0.005696118
154	0x3e399a74	0.18125325
155	0xbe059fd8	-0.13049257
156	0x3b8af5cc	0.004240727
157	0xbdd6587d	-0.104660966
158	0xbdfb8ea0	-0.12283063
159	0x3bd5256c	0.006504705
160	0x3e0e9066	0.13922271
161	0x3d8376f9	0.064191766
162	0xbdda2698	-0.106518924
163	0x3d6640ce	0.056214146
164	0x3e34ccdb	0.17656271
165	0xbd072c08	-0.033000976
166	0xbcf9fecb	-0.030517003
167	0x3d3a2c49	0.04545239
168	0x3c671513	0.014104146
169	0xbd5096ea	-0.050925173
170	0xbd9046de	-0.07044767
171	0x3e0f9809	0.1402284
172	0xbe02ff12	-0.12792614
173	0x3de8b55f	0.11362719
174	0x3d8fece9	0.07027609
175	0xbd1679e8	-0.036737353
176	0xbe16491b	-0.14676325
177	0x3d72ee98	0.059309572
178	0x3dbc3e53	0.09191575
179	0x3e285e7d	0.16442294
180	0xbe26feb5	-0.163081
181	0x3e0dd8b2	0.13852194
182	0xbdc7e6bb	-0.09760805
183	0xbd12b9b7	-0.035821643
184	0xbe2c4a83	-0.16825299
185	0x3dd32bce	0.103110895
186	0x3e44e17b	0.19226639
187	0x3e0478f4	0.12936765
188	0xbdeb4457	-0.11487644
189	0x3d20b21b	0.039232355
190	0xbc84eff3	-0.016227698
191	0x3dbac1ae	0.09118973
192	0x3b84669a	0.0040405514
193	0x3dfaa1b1	0.122378714
194	0x3d9acb01	0.07558251
195	0x3d955895	0.07292286
196	0xbc9d51ed	-0.019204104
197	0x3ce53d76	0.027983408
198	0x3c99e8f9	0.018787848
199	0x3ea01f23	0.31273755
200	0xbd8b96c7	-0.06815868
201	0x3c9f58ca	0.019451518
202	0x3b990b85	0.0046705627
203	0xbc2553a8	-0.010090746
204	0x3caea38e	0.021318223
205	0x3d8b6b6b	0.06807598
206	0xbd90ed17	-0.07076471
207	0xbc517e57	-0.012786469
208	0x3cb12497	0.021623893
209	0x3d53f720	0.05174935
210	0x3dbe6ab4	0.09297696
211	0x3c5088d8	0.012727939
212	0x3dffbf20	0.12487626
213	0x3d03bd19	0.03216276
214	0x3dd02b03	0.10164454
215	0x3cae9839	0.02131282
216	0x3cd83a93	0.026395118
217	0x3dfccb05	0.123434104
218	0xbaca9f63	-0.0015458878
219	0x3c13e8d7	0.009027681
220	0x3d5ec19e	0.054383866
221	0xbdaddd5a	-0.08489485
222	0xbc5a2858	-0.013315283
223	0x3bf80504	0.0075689573
224	0x3d8d8c9c	0.06911585
225	0x3cafb06a	0.021446425
226	0x3da0da72	0.07854165
227	0xbd488490	-0.048954546
228	0xbd1d6510	-0.03842646
229	0x3ae8bca5	0.0017756416
230	0x3d500fa3	0.050796162
231	0x3a633f93	0.0008668836
232	0xbc734c1f	-0.014849692
233	0x3db395bd	0.08768795
234	0xbd211491	-0.039326254
235	0x3d673585	0.056447525
236	0xbd12e496	-0.035862528
237	0x3df17679	0.11790175
238	0xbb507943	-0.003181056
239	0xbbeffcdd	-0.007323845
240	0x3df13194	0.117770344
241	0x3e1b1667	0.15145265
242	0x3dc016bf	0.093793385
243	0xbd02891d	-0.031869043
244	0xbd1244e8	-0.035710245
245	0xbd209bb2	-0.039210983
246	0xbd315717	-0.043295946
247	0x3caf7d7f	0.021422146
248	0x3dbb12a0	0.09134412
249	0x3d9d37e9	0.0767668
250	0x3e5759e8	0.2103039
251	0x3ca94856	0.020664375
252	0x3dec9e45	0.11553625
253	0x3d520fcb	0.051284593
254	0x3ac15b15	0.0014751876
255	0xbaa3177a	-0.001244291

lstm.weight_ih_l1 f4 [256, 64]
0	0x3c28cf8f	0.010303392
1	0x3c8bc609	0.017062204
2	0xbbef456d	-0.0073019774
3	0xbc6d5020	-0.014484435
4	0x3c0606a2	0.008180292
5	0xbc5e2f08	-0.013561018
6	0x3c81da16	0.015851062
7	0xbd646390	-0.055759013
8	0xbbbbad49	-0.0057274443
9	0xbc6ea657	-0.014566026
10	0x3c0e998d	0.008703602
11	0x3c2bf73b	0.010495956
12	0xbb925a19	-0.004466307
13	0x3b299a5e	0.0025879364
14	0xbbe3b98b	-0.0069496087
15	0x3bda87ec	0.006669035
16	0xbc522d32	-0.012828158
17	0xbcd2d024	-0.025734015
18	0xbc4944db	-0.012284483
19	0xbc513d23	-0.012770924
20	0xbc751b2f	-0.014960094
21	0x3c56d6ce	0.013112737
22	0x3ba29438	0.0049615167
23	0x3b2f8c47	0.0026786493
24	0xbb801a26	-0.003909367
25	0xbcb1df25	-0.021712849
26	0x3b72e406	0.0037062182
27	0xbc85dc69	-0.016340451
28	0xbc285644	-0.010274474
29	0xbb3f9351	-0.0029232095
30	0xbc45313d	-0.012035665
31	0x3bd52a5b	0.0065052933
32	0x3b024438	0.0019877087
33	0xbc70ae31	-0.014689968
34	0xbc2c49db	-0.010515655
35	0xbc225aee	-0.009909375
36	0xbb3c85e0	-0.002876632
37	0x3c4d2d2e	0.012522979
38	0x3bce1ab4	0.0062898044
39	0xbc077bb9	-0.008269244
40	0x3c09e267	0.008415795
41	0xbb41de19	-0.0029581843
42	0x3a8f6f5c	0.0010943222
43	0x3c858ef0	0.01630351
44	0xbc29dc64	-0.010367487
45	0x3c7a3a55	0.0152726965
46	0x3c6cc6e0	0.014451712
47	0x3b1f5367	0.0024311186
48	0xbb8e919b	-0.0043508536
49	0x3cc3c918	0.0238996
50	0x3b179685	0.0023130488
51	0x3b43aa87	0.002985628
52	0xbbdeaecf	-0.006795741
53	0xba5bc1a5	-0.00083830423
54	0xbac1eaac	-0.0014794669
55	0x3ccd8f83	0.025092846
56	0xbc442bbb	-0.011973317
57	0xbb2d9268	-0.002648497
58	0xbd1d1689	-0.03835157
59	0x3b8d8b83	0.0043196096
60	0xbc2a2069	-0.010383704
61	0xbbd29ec1	-0.0064276163
62	0x3bfffcad	0.0078121037
63	0x3be5383d	0.0069952295
64	0xbd94bac6	-0.07262187
65	0xbd88f025	-0.06686429
66	0xbdaa4807	-0.083145194
67	0xbd9c9608	-0.07645804
68	0xbd1eaf7a	-0.038741566
69	0x3c180838	0.009279303
70	0xbcf8bb9e	-0.0303629
71	0x3d27d9e3	0.040979277
72	0x3d80c711	0.06287969
73	0xbcb43dc0	-0.022002101
74	0x3daaa371	0.08331955
75	0x3dc11c5c	0.09429237
76	0xbb3cd58f	-0.0028813814
77	0x3d607ce5	0.05480661
78	0xbd4198c1	-0.047264818
79	0xbda0a505	-0.07843975
80	0x3c9857e1	0.018596591
81	0xbd1d59e7	-0.038415816
82	0x3d8b0034	0.06787148
83	0xbd9b3742	-0.07578899
84	0xbd57ea06	-0.052713417
85	0x3d9b0d5b	0.07570907
86	0x3cc34a91	0.023839267
87	0x3d148e76	0.036268674
88	0x3b20b687	0.0024522857
89	0x3d65bf2d	0.056090523
90	0x3cef11e4	0.029183336
91	0x3c32b252	0.010906773
92	0xbd51c182	-0.051209934
93	0x3c936a62	0.017995063
94	0x3dc7257a	0.09723945
95	0xbd9588bf	-0.07301473
96	0x3dbb79af	0.09154069
97	0x3c7e990f	0.015539422
98	0x3ccedc94	0.025251664
99	0x3c2d423a	0.010574872
100	0x3d94841c	0.0725176
101	0x3d8419df	0.06450247
102	0x3d075de4	0.033048525
103	0xbd4a7d10	-0.049435675
104	0xbcf37a2b	-0.02972134
105	0xbc9d0861	-0.019169034
106	0xbd798537	-0.06091806
107	0xbd71035f	-0.058841106
108	0xbd3dc09f	-0.046326276
109	0x3d93ec5e	0.07222818
110	0xbcb772fc	-0.022393696
111	0xbc4e2e66	-0.012584304
112	0x3d75dac1	0.060023073
113	0xbd758f55	-0.059951145
114	0xbcf9a24f	-0.030472903
115	0x3d7dc167	0.06195202
116	0xbccac302	-0.02475119
117	0xbdaf0802	-0.08546449
118	0xbcf73719	-0.03017764
119	0xbd5e14d0	-0.054219067
120	0x3d3bebfd	0.045879353
121	0xbd5eb44c	-0.054371163
122	0x3c06b700	0.008222342
123	0xbccd779a	-0.025081445
124	0x3c3e6661	0.011621089
125	0xbc3f4a79	-0.0116754705
126	0xbd18ce22	-0.03730596
127	0xbc729f13	-0.014808434
128	0x3d099079	0.033585045
129	0x3c82f0c6	0.01598395
130	0x3d65bc0a	0.05608753
131	0xbd68f5af	-0.056874927
132	0xbd46e627	-0.048559334
133	0xbd44c739	-0.048041556
134	0x3c6fc1f0	0.014633641
135	0x3d10d006	0.035354637
136	0x39ddd22b	0.00042308992
137	0xbd1c5382	-0.038165577
138	0x3da1d6c2	0.0790229
139	0xbc7fd000	-0.015613556
140	0x3d9c3f4a	0.07629259
141	0xbd2499a3	-0.040185582
142	0xbc7630a4	-0.015026245
143	0x3d538eff	0.051650044
144	0xbc824b59	-0.01590507
145	0x3d22e40f	0.039768275
146	0xbd36811c	-0.044556722
147	0x3cd64ec0	0.026160598
148	0x3d52133e	0.051287882
149	0x3da8ea85	0.08247856
150	0xbd84b299	-0.06479377
151	0x3d59e4fa	0.053196885
152	0xbce090c1	-0.027412774
153	0xbc4e1288	-0.01257766
154	0x3cc5a283	0.024125343
155	0x3d814195	0.06311337
156	0x3c467814	0.01211359
157	0xbd97003a	-0.0737309
158	0x3c274ff2	0.010211932
159	0x3c2c59e7	0.010519481
160	0x3d547a1e	0.051874273
161	0x3cc1c27c	0.023652308
162	0xbc55473a	-0.01301747
163	0xbb0b8c17	-0.0021293217
164	0xbd9d5793	-0.07682719
165	0xbbeac537	-0.007164623
166	0x3b673245	0.0035277766
167	0xbd7e2e30	-0.062055767
168	0xbd08b53d	-0.033375967
169	0x3ce259b3	0.027630663
170	0x3d0a3a74	0.03374715
171	0x3da81aaa	0.08208211
172	0x3cc5b0b0	0.024132103
173	0x3cf0667b	0.029345741
174	0xbd2c7b91	-0.04211003
175	0x3cde503f	0.027137874
176	0xbcaac3fd	-0.020845408
177	0x3d6526a4	0.055945054
178	0x3bbcebe0	0.005765423
179	0x3cdc2bc6	0.026876342
180	0xbc0a5308	-0.008442648
181	0xbcadb34e	-0.021203663
182	0x3ab3f63a	0.0013729997
183	0x3d74f797	0.059806433
184	0x3d89fe60	0.06737971
185	0xbd0f639e	-0.03500711
186	0x3d472a59	0.04862437
187	0xbd8657ad	-0.065596916
188	0xbcf2e4b0	-0.029650062
189	0x3d3becea	0.045880236
190	0x3d39ef28	0.045394093
191	0xbc4ddc09	-0.0125646675
192	0xbcb81aef	-0.02247378
193	0x3c7e4a01	0.015520574
194	0x3d9b24c7	0.07575374
195	0x3cbd983f	0.023143886
196	0x3c76f615	0.015073319
197	0x3d9f410f	0.07776081
198	0xbd40cef2	-0.04707236
199	0x3da040cf	0.07824861
200	0xbd6cdef4	-0.057829812
201	0xbaabc956	-0.0013106267
202	0xbdb701af	-0.08935868
203	0xbc8c76de	-0.017146524
204	0x3db4c71b	0.08827039
205	0x3dad0c74	0.08449641
206	0xbc5f250c	-0.0136196725
207	0x3d61290f	0.054970797
208	0x3cda55a5	0.026652167
209	0x3d8fb4ad	0.07016883
210	0xbd8c8513	-0.068613194
211	0xbd893dcc	-0.0670124
212	0x3d70db01	0.05880261
213	0x3bfe7f15	0.007766614
214	0x3db69b32	0.0891632
215	0xbd8c93c1	-0.06864119
216	0x3c8590f1	0.016304465
217	0xbdb8f276	-0.09030621
218	0xbce2f8ed	-0.027706588
219	0x3d6e84e3	0.0582322
220	0xbcab384b	-0.020900866
221	0xbd9670d8	-0.07345742
222	0xbd6ea66f	-0.058264192
223	0xbdba491d	-0.090959765
224	0xbd7d7d20	-0.061886907
225	0x3c22fe0b	0.009948264
226	0xbca86272	-0.020554755
227	0xbd9582f9	-0.07300372
228	0xbd843894	-0.06456104
229	0xbcbe919e	-0.023262795
230	0x3d7a33ef	0.061084684
231	0x3d812f6d	0.06307874
232	0x38ddf5c7	0.00010583881
233	0xbdabc361	-0.08386875
234	0xbc62e673	-0.013848889
235	0xbd43c32b	-0.04779355
236	0xbda922e5	-0.08258609
237	0xbd70feeb	-0.05883686
238	0xbd5ebd1a	-0.05437956
239	0x3a635a14	0.00086727855
240	0x3d2a3e92	0.041563578
241	0xbcefac80	-0.02925706
242	0x3d7d281a	0.061805822
243	0x3d3432fd	0.04399394
244	0xbdc3eab1	-0.09566248
245	0x3dd599c2	0.104297176
246	0x3d7476d7	0.059683647
247	0x3db206cc	0.08692703
248	0x3d54bc5c	0.051937446
249	0x3d9c381b	0.07627889
250	0x3d83cb68	0.06435281
251	0x3d6bcd18	0.05756864
252	0xbd3de12e	-0.046357326
253	0x3c355986	0.011068707
254	0x3cfa1a69	0.030530171
255	0xbd68f3a4	-0.05687298

lstm.weight_hh_l1 f4 [256, 64]
0	0x03168c45	4.424206e-37
1	0x02c9818b	2.960865e-37
2	0x02ff89df	3.7548017e-37
3	0x835f6164	-6.564561e-37
4	0x02dd7bce	3.2544092e-37
5	0x0331fe6d	5.230769e-37
6	0x82c947f6	-2.95756e-37
7	0x82fbf1f5	-3.7020012e-37
8	0x81b7c449	-6.750524e-38
9	0x83545994	-6.240403e-37
10	0x81305570	-3.2387393e-38
11	0x035c13a5	6.467474e-37
12	0x01db758d	8.061657e-38
13	0x82a74424	-2.4577555e-37
14	0x823a1c39	-1.3673221e-37
15	0x82dd4114	-3.2510384e-37
16	0x826e1b61	-1.7493336e-37
17	0x030d353c	4.1497286e-37
18	0x826ce824	-1.7405163e-37
19	0x830cd615	-4.1388056e-37
20	0x81f712da	-9.076052e-38
21	0x030872da	4.009865e-37
22	0x814282c8	-3.5726003e-38
23	0x82d1b776	-3.0815091e-37
24	0x80647008	-9.223739e-39
25	0x03619da5	6.6302524e-37
26	0x035b123c	6.4379248e-37
27	0x026f810a	1.7595979e-37
28	0x0292b671	2.1557488e-37
29	0x02a64f2e	2.4436955e-37
30	0x82c98a9b	-2.9613851e-37
31	0x032919ae	4.9694115e-37
32	0x02b341ab	2.6339378e-37
33	0x82ddf549	-3.2613818e-37
34	0x818f3f0a	-5.262036e-38
35	0x0312d0ce	4.314524e-37
36	0x0298519a	2.238123e-37
37	0x829fd310	-2.3484094e-37
38	0x813384c0	-3.297235e-38
39	0x0298607a	2.2389767e-37
40	0x83357b9c	-5.3333016e-37
41	0x024e4746	1.5154944e-37
42	0x00163b44	2.041641e-39
43	0x02160eaa	1.1024468e-37
44	0x02c68b9b	2.9173615e-37
45	0x02f04932	3.5306843e-37
46	0x828cd500	-2.0693407e-37
47	0x020c3185	1.0299787e-37
48	0x8320d3dd	-4.726298e-37
49	0x036e7a35	7.00822e-37
50	0x8325c602	-4.8716444e-37
51	0x022c1360	1.2642125e-37
52	0x02e32f5a	3.338183e-37
53	0x8314d026	-4.3732234e-37
54	0x0320e4ea	4.7282554e-37
55	0x82a5a69c	-2.43402e-37
56	0x81ca4e87	-7.431576e-38
57	0x03470d57	5.8496157e-37
58	0x81bd60a7	-6.9566324e-38
59	0x8349fa3c	-5.9355846e-37
60	0x82f2155e	-3.5570968e-37
61	0x028b475b	2.046517e-37
62	0x82183767	-1.1183096e-37
63	0x82b9d9dc	-2.7308352e-37
64	0x031c6ae7	4.5966998e-37
65	0x02d2a703	3.0952587e-37
66	0x02a67dc4	2.4463694e-37
67	0x025ff87a	1.6454762e-37
68	0x83307ede	-5.186739e-37
69	0x028a88b8	2.035575e-37
70	0x8189790b	-5.049954e-38
71	0x027093ca	1.7674829e-37
72	0x03481626	5.8800143e-37
73	0x02d81690	3.1751298e-37
74	0x018fc6de	5.2815264e-38
75	0x8358f7e8	-6.3761277e-37
76	0x823faeb8	-1.4082606e-37
77	0x82c74214	-2.927835e-37
78	0x82bad6af	-2.7453466e-37
79	0x82ed76a6	-3.489212e-37
80	0x020d9966	1.0403067e-37
81	0x02bec671	2.803189e-37
82	0x82aa0866	-2.4984075e-37
83	0x820a8f34	-1.0179736e-37
84	0x02a9258c	2.485387e-37
85	0x0286683d	1.974936e-37
86	0x0294d540	2.1869045e-37
87	0x828eadde	-2.096482e-37
88	0x02903a4a	2.1192355e-37
89	0x81a06df4	-5.893249e-38
90	0x83123da8	-4.297632e-37
91	0x82a10245	-2.3658126e-37
92	0x02ef83e8	3.5193604e-37
93	0x032005bc	4.7026357e-37
94	0x82a91da2	-2.4849327e-37
95	0x833c2ace	-5.529737e-37
96	0x8141fea0	-3.5631186e-38
97	0x8353808e	-6.21549e-37
98	0x03055be0	3.9190654e-37
99	0x8311ad66	-4.281072e-37
100	0x82c2ab3d	-2.8604024e-37
101	0x81c56d60	-7.2523316e-38
102	0x83142498	-4.35353e-37
103	0x0319bf2b	4.518211e-37
104	0x033d9f41	5.5724923e-37
105	0x821f0e83	-1.168564e-37
106	0x83067578	-3.951391e-37
107	0x03536cb4	6.213211e-37
108	0x82aeb491	-2.5670642e-37
109	0x82cbd436	-2.9949972e-37
110	0x836cf261	-6.9632404e-37
111	0x818a234e	-5.0743854e-38
112	0x8336d574	-5.3730025e-37
113	0x82b97746	-2.7251766e-37
114	0x02de5ef7	3.2674475e-37
115	0x028bdb2d	2.0550015e-37
116	0x03633222	6.6766854e-37
117	0x82de22fe	-3.2640053e-37
118	0x82e5126b	-3.3659097e-37
119	0x834dc91d	-6.047495e-37
120	0x0208e950	1.0058659e-37
121	0x02009e54	9.449393e-38
122	0x80e38d28	-2.0897295e-38
123	0x82f8df6d	-3.6568565e-37
124	0x8213ea5d	-1.0867113e-37
125	0x81e31939	-8.3422823e-38
126	0x02d016d6	3.057596e-37
127	0x035f1e5c	6.556866e-37
128	0x83184559	-4.4748393e-37
129	0x828a187e	-2.0291335e-37
130	0x02bd3e3e	2.780678e-37
131	0x0311a9f7	4.280678e-37
132	0x02f55dee	3.6053427e-37
133	0x035e8bf8	6.5400613e-37
134	0x02851c01	1.9558667e-37
135	0x02348b3b	1.3264269e-37
136	0x82e7c5b6	-3.405588e-37
137	0x02c0f47e	2.8352196e-37
138	0x00a5f8cc	1.5242108e-38
139	0x82633e0a	-1.669513e-37
140	0x82268fe6	-1.2237051e-37
141	0x83512a2c	-6.146799e-37
142	0x81c7722a	-7.326487e-38
143	0x033d8ca8	5.5703574e-37
144	0x83027eac	-3.834898e-37
145	0x035c2cd7	6.4703663e-37
146	0x81c80f86	-7.349067e-38
147	0x82ef8021	-3.5191436e-37
148	0x81945de9	-5.450137e-38
149	0x02ab1784	2.513969e-37
150	0x029a8c2a	2.2708716e-37
151	0x82f12a1e	-3.5435941e-37
152	0x82895362	-2.01782e-37
153	0x82132c8c	-1.0812639e-37
154	0x025eea37	1.63772e-37
155	0x0291df36	2.1433952e-37
156	0x03180b35	4.468165e-37
157	0x02d6499b	3.1486721e-37
158	0x02a93aac	2.4865994e-37
159	0x0244270a	1.441101e-37
160	0x0352bdec	6.1931473e-37
161	0x01fcb9d5	9.2836836e-38
162	0x02a7eff6	2.4676175e-37
163	0x835a90ea	-6.4230795e-37
164	0x02353336	1.3312477e-37
165	0x8349f244	-5.93467e-37
166	0x8359a1ec	-6.3956446e-37
167	0x82d08b87	-3.0642938e-37
168	0x823f36ae	-1.4048156e-37
169	0x02e11773	3.3074238e-37
170	0x0361334a	6.6180434e-37
171	0x03003cdb	3.768568e-37
172	0x8303191f	-3.8526278e-37
173	0x033f6be1	5.6253694e-37
174	0x0342f2f8	5.729039e-37
175	0x80b281ec	-1.6393326e-38
176	0x01bacd39	6.862009e-38
177	0x01adca6e	6.3840636e-38
178	0x82190430	-1.1241866e-37
179	0x033db7c8	5.575308e-37
180	0x82fe5f68	-3.7376706e-37
181	0x8227fd78	-1.2341964e-37
182	0x035676f8	6.3025517e-37
183	0x02b6de70	2.687017e-37
184	0x83467db7	-5.8331284e-37
185	0x830fc6f8	-4.225233e-37
186	0x820de210	-1.0423921e-37
187	0x01852538	4.890989e-38
188	0x0302ed24	3.847579e-37
189	0x835fb61e	-6.574287e-37
190	0x810ded5e	-2.6067913e-38
191	0x02c2033d	2.8507597e-37
192	0x029b433f	2.28138e-37
193	0x8301fac0	-3.819754e-37
194	0x03183018	4.4723994e-37
195	0x01521d00	3.8591715e-38
196	0x8240685e	-1.4135884e-37
197	0x8309afa2	-4.04623e-37
198	0x82656d54	-1.6855639e-37
199	0x01c5d867	7.2676893e-38
200	0x01f24e8c	8.900947e-38
201	0x02e015f6	3.2926447e-37
202	0x034ed9c6	6.078795e-37
203	0x8351f9e4	-6.170644e-37
204	0x82ba69ef	-2.7391047e-37
205	0x0301df50	3.8166043e-37
206	0x02469015	1.4588092e-37
207	0x80fe10e4	-2.3332275e-38
208	0x0290529f	2.120632e-37
209	0x83192c30	-4.5013384e-37
210	0x830b12b8	-4.0869917e-37
211	0x019d0552	5.7680326e-38
212	0x0312adee	4.3105205e-37
213	0x01f31c2e	8.930454e-38
214	0x83506351	-6.1239716e-37
215	0x83445249	-5.769368e-37
216	0x02f9ade8	3.668708e-37
217	0x005b6e50	8.396603e-39
218	0x833dc675	-5.5769926e-37
219	0x029861c3	2.2390505e-37
220	0x0223394f	1.1991795e-37
221	0x02195c1c	1.1267099e-37
222	0x02a379c4	2.4020587e-37
223	0x0354eb92	6.257162e-37
224	0x832fd049	-5.1666977e-37
225	0x0299e164	2.2610697e-37
226	0x83569bd8	-6.3067848e-37
227	0x834a10f1	-5.9381912e-37
228	0x032ed48b	5.137799e-37
229	0x02b7f1ee	2.7028294e-37
230	0x8265f70f	-1.6895165e-37
231	0x8354901c	-6.246663e-37
232	0x0307b308	3.987845e-37
233	0x82717d4f	-1.7741845e-37
234	0x02c8dad0	2.951295e-37
235	0x02d7636b	3.1648474e-37
236	0x02091711	1.007179e-37
237	0x02c6799b	2.9163283e-37
238	0x007363d8	1.0596899e-38
239	0x8227baff	-1.2322888e-37
240	0x833db841	-5.575362e-37
241	0x83579058	-6.334852e-37
242	0x02e3dc3c	3.348106e-37
243	0x03546ed0	6.2428407e-37
244	0x02eb8c9d	3.4610855e-37
245	0x014aa13e	3.7217226e-38
246	0x8200128f	-9.409281e-38
247	0x027d88f4	1.8626808e-37
248	0x03195e60	4.5070996e-37
249	0x82f13686	-3.5443062e-37
250	0x8289ca8d	-2.02466e-37
251	0x8331270a	-5.206044e-37
252	0x803772a4	-5.092078e-39
253	0x834fbd0a	-6.104884e-37
254	0x021cc57e	1.1517747e-37
255	0x0299d730	2.260484e-37

lstm.bias_ih_l1 f4 [256]
0	0xbd125324	-0.03572382
1	0x3e1da4d8	0.15394914
2	0x3dbb9ae2	0.09160401
3	0x3c6b2931	0.0143530825
4	0xbd80ce03	-0.062892936
5	0xbc89a1ec	-0.016800843
6	0x3ddc2866	0.10749893
7	0x3dbb54aa	0.09147008
8	0xbcbedf82	-0.023299936
9	0x3d5b3e71	0.053526346
10	0x3dd06b8e	0.101767644
11	0x3ddb3403	0.1070328
12	0xbc89d280	-0.016824007
13	0x3d5a14fd	0.053242672
14	0xbcb86a6a	-0.02251168
15	0x3d262963	0.040566813
16	0xbc925b7e	-0.017865892
17	0x3e17a162	0.14807656
18	0x3d84c8b1	0.06483591
19	0xbd731d20	-0.059353948
20	0x3d4d51da	0.050126888
21	0xbd4aa3ed	-0.049472738
22	0xbbb307c9	-0.0054635745
23	0x3d1994d4	0.03749545
24	0x3dea4b45	0.11440138
25	0x3d89d440	0.067299366
26	0xbd9cd1e5	-0.07657222
27	0x3cacfd93	0.021117007
28	0xbc4fcf1d	-0.012683657
29	0xbb05e1a0	-0.0020428672
30	0x3d1096b9	0.03529999
31	0xbd81a1ca	-0.06329687
32	0x3da1c0a8	0.078980744
33	0x3be9ce3b	0.0071351803
34	0x3c4ea9f4	0.012613762
35	0x3d9cf872	0.07664575
36	0xbd1c49ce	-0.038156323
37	0xbd7db5b2	-0.061940856
38	0x3db36d38	0.08761066
39	0xbcb2b501	-0.021814825
40	0x3df603a1	0.12012411
41	0x3ce4b9fc	0.027920716
42	0x3c9af83a	0.018917192
43	0xbd857968	-0.06517297
44	0xbca08595	-0.019594947
45	0x3d8f3f99	0.06994552
46	0x3d9749a6	0.07387094
47	0xbab816a0	-0.0014044829
48	0x3dddeccb	0.1083618
49	0x3d9596ef	0.07304179
50	0x3e03c171	0.12866761
51	0x3ce2ab98	0.027669713
52	0xbdcd872e	-0.10035549
53	0xbd22fff5	-0.03979488
54	0x3cfa85aa	0.030581314
55	0x3df294f8	0.1184482
56	0xbd1f4dc5	-0.038892526
57	0x3d2faad2	0.042887516
58	0x3d0a9d03	0.033841144
59	0x3d91a559	0.07111616
60	0x3d09d7ac	0.033652946
61	0x3a892e5d	0.0010466088
62	0x3deaf961	0.114733465
63	0xbbfdd499	-0.007746291
64	0x81b8a122	-6.782214e-38
65	0x80e6ff88	-2.1213831e-38
66	0x836f4fe4	-7.0327497e-37
67	0x824d83fa	-1.5098897e-37
68	0x02e68dd1	3.3876861e-37
69	0x035d085e	6.495567e-37
70	0x01c1f366	7.124626e-38
71	0x01a37244	6.0040707e-38
72	0x832b5714	-5.0352344e-37
73	0x02fd0564	3.7178103e-37
74	0x82567c93	-1.5757988e-37
75	0x028afa85	2.0421069e-37
76	0x02ae2c18	2.559231e-37
77	0x023b53eb	1.3762674e-37
78	0x8280eb3d	-1.894293e-37
79	0x032292dc	4.7776108e-37
80	0x83564d9c	-6.297804e-37
81	0x82af9050	-2.579677e-37
82	0x832bbaff	-5.0467044e-37
83	0x824d1a56	-1.5068579e-37
84	0x83094b7c	-4.0347333e-37
85	0x83288f4e	-4.953527e-37
86	0x036d68e8	6.9768467e-37
87	0x82a240e4	-2.3841006e-37
88	0x823fadb3	-1.4082313e-37
89	0x0319a9eb	4.5157715e-37
90	0x831ca2f8	-4.603136e-37
91	0x02d2c4a8	3.0969602e-37
92	0x8246ab6a	-1.4595936e-37
93	0x801f4f70	-2.875397e-39
94	0x831bced4	-4.5787833e-37
95	0x026d24d0	1.7422575e-37
96	0x827100cc	-1.7706112e-37
97	0x01b70764	6.723419e-38
98	0x02935370	2.16476e-37
99	0x826bd6c3	-1.7326707e-37
100	0x02053b5b	9.788331e-38
101	0x02cc4acf	3.0018044e-37
102	0x03520c5a	6.1727632e-37
103	0x0322a5e4	4.7797954e-37
104	0x02e2b584	3.33119e-37
105	0x8252b28c	-1.5479604e-37
106	0x0353980b	6.2181864e-37
107	0x820341b4	-9.643216e-38
108	0x829fe248	-2.349283e-37
109	0x0343b400	5.751198e-37
110	0x02200f3a	1.1759313e-37
111	0x033ea202	5.6021958e-37
112	0x02ac648c	2.533084e-37
113	0x033a0d81	5.467599e-37
114	0x0315def7	4.4043116e-37
115	0x01192db4	2.8134452e-38
116	0x0082522c	1.1968092e-38
117	0x00991534	1.4058437e-38
118	0x82f3ba30	-3.5812507e-37
119	0x8192b912	-5.389749e-38
120	0x02813f98	1.8991347e-37
121	0x827f2080	-1.8743768e-37
122	0x8013bcbc	-1.81258e-39
123	0x026ddfff	1.7476294e-37
124	0x821adb93	-1.1377148e-37
125	0x830e972a	-4.1903577e-37
126	0x828e4efd	-2.0910362e-37
127	0x82054285	-9.790387e-38
128	0xbdbcc702	-0.09217645
129	0xbdbf6d67	-0.09347039
130	0x3e1af759	0.15133418
131	0xbde29ca2	-0.110650316
132	0x3d5152c3	0.05110432
133	0x3e0e0c8c	0.13871974
134	0xbe362fd7	-0.17791687
135	0x3c309b82	0.010779263
136	0x3dba23b9	0.09088845
137	0x3b4a51f6	0.0030871606
138	0x3dd0e6c8	0.10200268
139	0xbe204dd5	-0.1565469
140	0x3e093b44	0.13401514
141	0xbd9f1a12	-0.077686444
142	0xbdcda0c0	-0.10040426
143	0x3e1a0bf0	0.15043616
144	0x3d5f6825	0.05454268
145	0xbcaeacb2	-0.021322582
146	0x3dfe99ce	0.1243168
147	0x3e32cf9f	0.17462014
148	0xbe3818a9	-0.17978157
149	0x3cf0c96c	0.02939292
150	0xbd170eb4	-0.036879256
151	0x3d543af6	0.051814042
152	0x3dc1a797	0.09455793
153	0x3d984ecf	0.074369065
154	0x3e0f2189	0.13977636
155	0x3d6c4a0d	0.057687808
156	0x3e07b33b	0.13251965
157	0x3ccaab5a	0.02473991
158	0x3d80d546	0.06290679
159	0x3e3c10aa	0.18365732
160	0xbde1c92f	-0.11024701
161	0xbce84a3c	-0.02835571
162	0xbd183580	-0.037160397
163	0xbd9dfb47	-0.07713943
164	0x3e1b22aa	0.15149942
165	0xbe045913	-0.12924604
166	0xbe262d48	-0.16228211
167	0x3e3cc2b5	0.1843365
168	0x3e1667c5	0.14688022
169	0x3d10f245	0.035387296
170	0xbd7db3e9	-0.061939154
171	0xbdb5a63a	-0.08869596
172	0x3e0e1831	0.13876416
173	0xbdb39868	-0.087693036
174	0xbd82b73d	-0.06382606
175	0x3e026850	0.12735105
176	0x3e2840c1	0.16430952
177	0xbc78a956	-0.015177092
178	0xbe00cd9c	-0.12578434
179	0x3d09fb54	0.03368695
180	0x3cbf39ef	0.023343055
181	0xbe0ca593	-0.13735037
182	0x3d948ce9	0.07253439
183	0x3e1de99f	0.1542115
184	0xbe08acfd	-0.1334724
185	0xbdb084cd	-0.0861908
186	0xbe00e362	-0.1258674
187	0xbe3a673d	-0.18203445
188	0x3cc43d22	0.023954932
189	0x3e2c5776	0.16830239
190	0x3e242ae2	0.16031983
191	0xbe24b443	-0.1608439
192	0xbca5b6ec	-0.020228826
193	0x3bbc4f6a	0.0057467716
194	0xbc2473f8	-0.010037415
195	0xbc9ca048	-0.019119397
196	0x3db3e060	0.087830305
197	0x3bda1774	0.006655628
198	0x3da77007	0.081756644
199	0x3e16a843	0.14712624
200	0xbd112959	-0.035439823
201	0xbc8ebcd4	-0.017424025
202	0xbd9c161f	-0.07621407
203	0x3dd8e616	0.105907604
204	0x3dae6b88	0.08516604
205	0x3c4872df	0.012234419
206	0xbd525232	-0.05134792
207	0x3ca1da4c	0.019757412
208	0xbc684054	-0.014175493
209	0x3d8d75a1	0.069072016
210	0x3dac4388	0.08411318
211	0x3c728a10	0.0148034245
212	0x3d348073	0.04406781
213	0xbdbc0d4a	-0.09182222
214	0x3e0b7112	0.13617352
215	0x3d478495	0.048710424
216	0x3df8d4c1	0.121499546
217	0x3d348667	0.04407349
218	0xba437950	-0.00074567366
219	0xbc99dc1a	-0.01878171
220	0x3d450655	0.04810174
221	0x3db13de4	0.08654383
222	0x3de08bd9	0.10964174
223	0x3db4216f	0.087954395
224	0xbc28e2b3	-0.010307956
225	0x3d36c612	0.04462249
226	0x3e347ddf	0.17626141
227	0xbd62ffd2	-0.05541975
228	0x3e037d88	0.12840855
229	0x3d5ed406	0.05440142
230	0x3e0b7215	0.13617738
231	0x3de8a897	0.11360281
232	0x3ddc788d	0.10765181
233	0x3d01e806	0.031715415
234	0xbd1df7d1	-0.038566414
235	0xbd8924f4	-0.066965014
236	0x3e09411f	0.13403748
237	0x3d5e1ff5	0.054229695
238	0xbd073e7d	-0.033018578
239	0xbd3fce58	-0.046827644
240	0x3d8a1d83	0.0674391
241	0x3dbb7eea	0.09155066
242	0x3da14423	0.07874324
243	0x3dc3ab9f	0.095542185
244	0x3dbc90c9	0.09207303
245	0x3dd641e5	0.10461787
246	0x3ddc009d	0.107423045
247	0xbd8f9928	-0.07011634
248	0xbc6b660c	-0.014367592
249	0xbd0867d0	-0.03330213
250	0x3dc7fdf1	0.09765232
251	0x3cf984ea	0.030458886
252	0x3d6c1879	0.057640526
253	0x3e2c572c	0.16830128
254	0x3e128290	0.14307618
255	0x3da4dbc5	0.0804973
